pretrained_model/decoder.pth (torch, 189353 bytes, 18 tensors)

decoder_lin.0.weight f4 [128, 20]
00000000: acc8 60bd 4567 0c3e 5d14 a33c 2933 21be
00000010: f721 9d3d 0f07 62bd 7caa 003d 2b85 cc3d
00000020: 19e3 e83d 64fb 90bc cfd5 013e ce9a c4bc
00000030: 3a30 acbe 64ac 1d3e ec87 81bc ce9a 3cbd
00000040: b071 ebbc 73a8 ab3d 78ee 863d 369a 7bbd
00000050: 8ec1 693c 5eb4 e23d e87a 783d f882 163e
00000060: b42e 70bd c98a 013e aa37 cc3d 899f 17bd
00000070: 6b1e b1bc 44ee 17be 7baa 88bc 3983 0b3b
00000080: 15b8 16bd affc eabb e55c ba3d 4179 a83c
00000090: 2bf6 a83d 2f14 453d d7ff 7d3d af5c ecbc
000000a0: 3155 0380 24ab 0780 15e5 0500 7808 0180
000000b0: c81c 0380 d614 0700 2e09 0080 7a60 0480
000000c0: cc1c 0700 4e3d 0000 a89a 0780 905e 0700
000000d0: 5292 0400 1550 0100 9af7 0500 c10a 0200
000000e0: 5bdd 0700 29d4 0080 600d 0780 f794 0380
000000f0: fafa 083e ef18 903d ceaa beba a85b f2bd
00000100: 9c63 c0bd 0623 6dbd 268d e03d 1eac 11be
00000110: e966 9c3d a838 273e 6e16 c23d 97fa 9e3d
00000120: 5576 943d e858 393d c6ef ec3d 080e 1f3d
00000130: 5eb4 29bb f0ee 20bd aa18 a83d 90cb 30be
00000140: 5730 85bd 63c3 2fbe 9774 013e 5c76 003e
00000150: 0800 83bd 8dd6 db3d 2b02 183c 408b 82bd
00000160: 4859 b6bc ec19 f83d 9779 31be be3f ebbc
00000170: d4ac 0f3e 3a34 fabd 16fd 573b 9074 4dbc
00000180: 9060 18bd 7335 3fbe ce7e 5abb 19f0 f93c
00000190: 3144 8c3d ca6f 913d 3dbf 1abe d5b7 8fbd
000001a0: cea6 d1bc 1642 613d e74c 4f3d 8119 9d3d
000001b0: ead5 ccbc d317 ed3d b367 603d eff7 6ebc
000001c0: b169 41bc 05c4 ccbd f80d 6ebd 19e9 f2bc
000001d0: 1ef0 0fbc 0fb0 19bd 4864 c6bc dd93 babc
000001e0: 88db 1dbd a6d0 a33c 4cb6 a9bc ef07 b2bd
000001f0: 8116 573b 6883 2cbd 653e 01bc 478e 513d
00000200: 848b a9bc 57c2 213c 0f0d 3e3d a47a cfbb
00000210: 9c24 acbc ce21 cabd 41b0 02be 37b1 85bd
00000220: 5944 673d 0bc4 93bd cedc afbc b241 3a3d
00000230: bfef 42bb d2e5 323b 9275 59bb de9c 503b
00000240: 117d 123b a8e9 513b ba9d 3fbb c5d5 35bb
00000250: b334 353b adad 59bb 39b2 3e3b 2129 f6ba
00000260: 0de8 02b7 43ce 3f3b e177 3fbb 0415 4abb
00000270: 05d3 423b 6dc0 56bb 0293 4d39 1c84 b03a
00000280: d97e 043e a23c 1fbd 71e3 a0bd c99f c7bc
00000290: 7373 c5bc f219 d53d 1fa6 f8bb feed c7bc
000002a0: 8d2e 4cbd 0e87 b43d e2bb 40bd a4c6 45be
000002b0: dc35 55bd 0d9c e0bd bdc9 503d 6117 38bd
000002c0: e829 cdbd 46ae 923d 68b5 1cbd 8ede 22be
000002d0: 36f8 5d18 f827 2998 2d67 1719 7756 f498
000002e0: ff63 1398 37f7 a898 242b f717 7ef5 2a98
000002f0: 9181 9598 5132 6219 fba8 1e99 c7d3 8297
00000300: 499f fa97 9e86 1699 1497 0d19 5628 7816
00000310: 789b c317 bac2 6619 f96c 0118 f1ff ce97
00000320: 4f43 aabb fe75 c53d d606 6a3d dfb1 0e3e
00000330: 2a92 b83b b270 a6bd 8b1a 603c b214 76bd
00000340: 7332 bdbb b747 90bd dd30 a93c 8be0 91bc
00000350: d634 e7bc 37a3 a83c d0a1 a1bd 2bd9 06bd
00000360: 5969 653c 98e5 193d e5ec ab3c 2da6 24bd
00000370: 68bc 853b 9074 553d 136b 60bd f727 cb3d
00000380: af11 3e3d f37a f23d dd6d 45bd e5ca 143d
00000390: 17de e63c 642d b23c 4ec0 703d d72e abbc
000003a0: af24 bebc 0367 473d 4fb5 a3bd 8328 3cbd
000003b0: 588d 613d 7d3a 1ebe 8ed1 1e3d a317 683c
000003c0: 9668 6fbb c4d7 8c3b 87e4 9bbb 0c96 933b
000003d0: 5d77 943b 7f97 903b ef42 a1bb 59fb 8fbb
000003e0: 1525 7a3b 59ab 97bb d808 7d3b b220 61bb
000003f0: 8af9 c8ba a207 8a3b 9312 83bb d17c 80bb
-0.054878876 0.13711269 0.01990717 -0.15742172 0.07672494 -0.055182513 0.031412587 0.09986337
0.113714404 -0.017697997 0.12679218 -0.023999598 -0.33630544 0.15397793 -0.015811883 -0.04604607
-0.028740734 0.083817385 0.06588453 -0.061426364 0.014267338 0.110695586 0.060664088 0.14698398
-0.05863829 0.12650599 0.099715546 -0.03701738 -0.02162095 -0.14836985 -0.016682854 0.0021287932
-0.036796648 -0.0071712355 0.090997495 0.02056563 0.08250078 0.04811495 0.062011566 -0.028852789
-3.06067e-40 -7.04242e-40 5.41357e-40 -9.4874e-41 -2.85831e-40 6.50323e-40 -3.293e-42 -4.01951e-40
6.53179e-40 2.1992e-41 -6.98329e-40 6.76771e-40 4.19832e-40 1.20564e-40 5.48e-40 1.87529e-40
7.22256e-40 -7.6109e-41 -6.47647e-40 -3.28945e-40 0.1337699 0.07036006 -0.0014546753 -0.11833888
-0.09393999 -0.05789473 0.10964422 -0.14225814 0.07636816 0.16330206 0.094769344 0.0776264
0.072491325 0.045250803 0.11569171 0.03883174 -0.002589486 -0.03929037 0.08207829 -0.17265153
-0.06503361 -0.17164378 0.12642132 0.1254515 -0.0639649 0.10734282 0.009277861 -0.06374216
-0.02225937 0.12114319 -0.17331539 -0.028716918 0.14030772 -0.12216993 0.0032957247 -0.012539998
-0.037201464 -0.18672733 -0.0033339742 0.030509995 0.06848944 0.071014 -0.15112014 -0.07017485
-0.025592234 0.054994665 0.05061045 0.0767088 -0.025004346 0.1157681 0.054786395 -0.014585479
-0.011804984 -0.09998325 -0.05811879 -0.029652165 -0.008785276 -0.03752142 -0.02421774 -0.022775585
-0.03853944 0.019996952 -0.020716809 -0.086929195 0.003281981 -0.042117506 -0.007888411 0.051161077
-0.020696409 0.009872994 0.046399172 -0.0063317586 -0.02101355 -0.09869729 -0.12762548 -0.06527942
0.056461666 -0.072151266 -0.021467593 0.04547281 -0.002974495 0.0027297628 -0.003318165 0.0031831781
0.0022352377 0.003203014 -0.00292383 -0.0027745825 0.002764982 -0.003321509 0.0029097928 -0.0018780568
-7.802632e-06 0.0029267229 -0.002921574 -0.003083528 0.0029727828 -0.0032768503 0.00019605088 0.0013467106
0.12939014 -0.038876183 -0.07855881 -0.024368184 -0.024102902 0.10405339 -0.0075881626 -0.024405476
-0.04984908 0.08814822 -0.04705418 -0.19314057 -0.052053317 -0.10967264 0.050973643 -0.04494417
-0.100177586 0.07162146 -0.03825894 -0.1590521 2.8688895e-24 -2.1862917e-24 7.827353e-24 -6.315983e-24
-1.904979e-24 -4.3676605e-24 1.5972891e-24 -2.2095927e-24 -3.8646426e-24 1.16940875e-23 -8.202534e-24 -8.454513e-25
-1.6196081e-24 -7.782004e-24 7.320039e-24 2.0046008e-25 1.2640825e-24 1.1930046e-23 1.6727876e-24 -1.3377047e-24
-0.005196012 0.09641646 0.057135426 0.1393504 0.0056326585 -0.08126964 0.013678203 -0.06007833
-0.0057738363 -0.070449285 0.020653183 -0.017807266 -0.028223436 0.02058564 -0.078921914 -0.03292195
0.014002168 0.037572473 0.020986984 -0.04019754 0.0040812977 0.052113116 -0.054789614 0.09919732
0.046403583 0.11839857 -0.048200477 0.036326308 0.028182073 0.02175016 0.058777146 -0.020896358
-0.023210851 0.048682224 -0.07993566 -0.045937072 0.055066437 -0.15451999 0.038774066 0.014165792
-0.0036530844 0.004298182 -0.004757467 0.004503971 0.004530831 0.004412591 -0.004921309 -0.0043939766
0.0038169075 -0.0046285805 0.0038610008 -0.0034351763 -0.0015333157 0.0042123357 -0.004000017 -0.0039211293

decoder_lin.0.bias f4 [128]
00000000: 4abc ecba 5fac 5d3d 0a52 2383 225f 38bd
00000010: daa7 80bc 969e f33c 65ae d43d 8d3d 7dbb
00000020: 7c88 4dbd f769 bf99 9a2f 0d3e 80a9 e23d
00000030: ae3f 9cbb eaa8 8abb ee9b 093e defa 34bc
00000040: 9e94 b93d 1749 163c 328c 90bd 3226 973c
00000050: 5e14 38bc 1254 40b8 d397 9a3d 8f02 8db7
00000060: 91ca 34b8 0c3a 10bd 8404 673d 3cf5 94bc
00000070: 0a2c 26bc 0451 b6a8 826b d9bb de6e 873d
00000080: ff0a 88bb a43a ee3d 7b2d d197 0221 e53d
00000090: b1ad ad3d e250 32bc 2531 75b2 0fa1 28b9
000000a0: a10a c73c 486b 0ebb 90b4 a93d 00d8 a0bb
000000b0: 9f69 a18e 2f52 9abb 87ae b63d a1db b13d
000000c0: 9181 9aa3 4f91 a4ba 38a0 f23d 3228 5dbb
000000d0: 598c 2a3d 8bc9 e83d 659a b63d d4e9 ad3d
000000e0: 3ece 90bb 6552 873d 855e 01bc e2c4 4cbb
000000f0: d7f0 fa3d 9459 db3d 07c8 04a9 b3b4 99bb
00000100: d448 1fac 81d0 c33d 9f14 b53c 8f82 893d
00000110: 89b6 23bd 65dd 59b9 c7dc 2abb b453 a6b7
00000120: 4dac cb3d 693b bdbc 1bc4 313a 5415 0dab
00000130: 5f92 803d 2abc 59bb 9a54 b63c 3e6f 02bd
00000140: f48a 0a3d 55d9 75b8 b39b c13d 871d d13c
00000150: 9d28 60bd 70bc 8cbb 6ff9 ce3c b310 1e3c
00000160: 29a4 c33b 70a3 ab3c 91ed 84bb ffd0 5fbb
00000170: 1c0a 173d 7d2a 4cbc 6ed2 6e3d 9dfb 903d
00000180: e37d 393d 7709 da3d 00d2 06b9 d5ca a7b9
00000190: daa5 4dbc dcb0 523b 2a80 8f3c 7e2e 043c
000001a0: 3976 0dbe 9c15 743d 48bc 3dbd 0a97 e43d
000001b0: 983c 6e3d 9844 e03d 7ee4 1dbd f2b3 dc3d
000001c0: ff04 efb8 7a98 053d a0a2 0a3d a3ec 1e3d
000001d0: dcc7 9abb f553 8dbb 1855 beb1 c659 d63d
000001e0: 0db9 3cba 3ffe dcb6 e74e c93d fd0b bcb4
000001f0: 9567 82bb 0212 fe3c 7c97 e63d 6033 163c
-0.0018061486 0.054119464 -4.799557e-37 -0.0450126 -0.015705038 0.029738706 0.103848256 -0.0038641423
-0.05017899 -1.9791736e-23 0.1378769 0.11067486 -0.0047683334 -0.004231562 0.13438389 -0.0110461395
0.090615496 0.009172699 -0.0705799 0.01845083 -0.011235325 -4.5854664e-05 0.075484894 -1.6809701e-05
-4.3104e-05 -0.035211608 0.05640079 -0.018183343 -0.010142336 -2.0241194e-14 -0.0066351304 0.06612943
-0.0041517015 0.116322786 -1.3517789e-24 0.11187936 0.08480395 -0.010883542 -1.4272051e-08 -0.00016081728
0.02429706 -0.0021731425 0.08286393 -0.0049085617 -3.9791274e-30 -0.004709504 0.08920007 0.08684469
-1.6751587e-17 -0.0012555512 0.118469656 -0.0033745882 0.041637752 0.11366566 0.08916167 0.08491865
-0.0044191172 0.066075124 -0.00789607 -0.003124528 0.12252968 0.10710445 -2.9483384e-14 -0.0046907305
-2.2635687e-12 0.09561253 0.02210456 0.06714355 -0.039969 -0.00020777209 -0.0026071535 -1.982772e-05
0.09944973 -0.023099618 0.0006781236 -5.012286e-13 0.06277918 -0.0033223727 0.022257138 -0.03184437
0.033823922 -5.8614958e-05 0.094535254 0.025526775 -0.05472623 -0.0042949244 0.025265424 0.009647536
0.005970497 0.020951957 -0.0040566404 -0.003415167 0.036874875 -0.012461302 0.05830615 0.070792414
0.04528607 0.106463365 -0.00012857467 -0.00032003844 -0.012551749 0.0032148873 0.017517168 0.008067725
-0.1381463 0.05959092 -0.046322137 0.11161621 0.058163255 0.10950583 -0.038547985 0.10776509
-0.00011397339 0.032616116 0.033846498 0.038799893 -0.004723532 -0.004312987 -5.539402e-09 0.10466342
-0.00071992056 -6.586109e-06 0.098295026 -3.5026451e-07 -0.003979633 0.031014446 0.11259362 0.009167522

decoder_lin.2.weight f4 [288, 128]
00000000: ecd8 0200 55c2 0400 d798 0000 e861 0780
00000010: 87d6 0780 377e 0300 d301 0300 1cce 0680
00000020: eeab 0180 67ab 0500 58ad 9d84 e90f 0000
00000030: c81e 0300 3b7d 0780 5733 0280 b5f3 0680
00000040: f3ab 0380 0506 0600 e86c 0400 f8ae 0700
00000050: 0949 0500 6ba4 0100 c5f5 0080 89fd 0000
00000060: 9477 0300 4432 0700 d752 0700 249f 0700
00000070: bc57 0780 1e65 0100 5d70 0200 0652 0200
00000080: 4d5c 0680 d34e 0700 11d1 0680 7d9b 0000
00000090: 9ba1 0680 8bf3 0200 0037 0500 356c 0700
000000a0: 1b12 0600 a858 0780 8f8f 0180 1e26 0280
000000b0: f43b 0600 f403 0180 7cdf 0480 fb65 0100
000000c0: 40be 0500 a5d6 0700 df2d 0480 70ba 0680
000000d0: f1b4 0600 3aba 0200 0fa1 0480 a65e 0680
000000e0: 84df 0200 e261 0000 4ef2 0400 1d38 0780
000000f0: 4c5b 0000 ab14 0780 9ccd 0400 3868 0700
00000100: f8ac 0600 ba4d 0600 341e 0380 f309 0000
00000110: 5f73 0680 9b60 0080 2279 0480 68ac 0380
00000120: 5a1a 0500 e9b7 0180 17ae 0400 90e9 0780
00000130: c450 0500 56e1 0180 b695 0480 5cfd 0500
00000140: 540f 0380 a7a9 0400 32d4 0780 d390 0780
00000150: 1f5c 0380 ed38 0700 ca1e 0680 65c1 0680
00000160: 4c3a 0180 a77e 0300 0038 0880 8d29 0300
00000170: 0dad 0580 6b96 0080 b773 0300 6435 0280
00000180: 9c83 0200 b5e2 0080 18f2 0680 ed94 0000
00000190: 9b17 0100 2b91 0700 2f0a 0480 24b1 0180
000001a0: 653e 0080 f2a9 0280 95c9 0400 90e1 0780
000001b0: 2dd6 0280 7527 0680 642a 0680 3b84 0200
000001c0: d5d4 0180 b0b3 0700 933f 0600 2274 0680
000001d0: 620d 0700 2fd2 0480 93c1 0480 5c39 0780
000001e0: 1995 0600 b256 0500 7d1b 0480 96ff 0380
000001f0: 415e 0480 be78 0500 1c35 0480 b923 0700
00000200: b807 893c 3b8e 9fbc c0ac 0400 ae0a 85bc
00000210: befe 523d 37cb 3abd 4d35 403c dcf4 06ba
00000220: fe03 5e3b defa 0f98 5d95 9f3c 0963 71bc
00000230: 385f 193b ab99 88bb 3350 5c3c 4c5a cc3d
00000240: 571e dd3c 55ca 943b 8a9b 673d a854 b9bc
00000250: dd13 073d 1ea3 0000 3203 9abc 2c37 0700
00000260: 5efc 0480 4ada 5cbc 3372 01bd 9f80 943c
00000270: 2db2 633d 3b44 0680 4eee 3c3d 8118 27bb
00000280: 9a52 d3b9 88d1 e5bb 8e18 0500 d4de 48bd
00000290: 6670 11bc 585e 46bd 0999 c3a5 79ec 5316
000002a0: 9eb9 053c a793 3835 39c7 03bd eac7 153b
000002b0: 35ce 0080 0130 93ba 19c5 883b 964e b6bc
000002c0: 5a30 66a1 c52d 08ab c058 79bc 2e46 5cb7
000002d0: 3965 b03d abef 49bd 0a68 633d b380 8e3c
000002e0: a3a9 8dba d127 39bd ea11 703d 3d53 2abc
000002f0: 71fc 84bc 1249 afbc ba61 0680 2460 2fba
00000300: 7be2 0080 61f5 973b dcbc 883d 2a91 2fbd
00000310: e084 813d 75be ed3c e47f 25ba 091e 0500
00000320: dbf6 fc3c 4def bdbd 40a5 ed3c a9d7 0780
00000330: 76b7 6cbd c525 e738 a7d4 89bc 156a 51bd
00000340: 508d 5c3c db7c 0500 463f ea3c 7015 c0bc
00000350: 81f0 0ebd 6902 fbb9 7eb5 353b 8e59 0bbd
00000360: 48a3 f73b b7a1 2abc 5d29 88b7 528a 4237
00000370: a477 2dbd aa1a ab3d 85fc cd3b 9ded 61bd
00000380: 593b 903d 5762 38ba f51a e1a1 23c1 d392
00000390: 0505 6c3c 203c 51ba b624 29bc d0da 04bd
000003a0: b8af 92bd 6e88 a73c 9df6 173d 6381 34bd
000003b0: 880c 88bc 2ddd 703b bfbe f7ba 5a1e 1ebc
000003c0: 7486 1b85 278a b9bc 7956 fa3a 2d60 8f3c
000003d0: e342 46bb c853 9fb9 437d 0700 fb66 503c
000003e0: 751e 0b92 4be3 f205 9f98 2dbc 9e2a 0580
000003f0: 6c6a 04bb 3e82 6cbc b812 72bc 44ee 4dbd
2.61488e-40 4.37055e-40 5.4829e-41 -6.7797e-40 -7.19806e-40 3.20784e-40 2.76161e-40 -6.24951e-40
-1.53512e-40 5.20665e-40 -3.7069714e-36 5.707e-42 2.86549e-40 -6.87773e-40 -2.02088e-40 -6.38439e-40
-3.3719e-40 5.53172e-40 4.0641e-40 7.05615e-40 4.85378e-40 1.50818e-40 -8.8165e-41 9.0951e-41
3.18403e-40 6.6088e-40 6.72566e-40 6.99937e-40 -6.74322e-40 1.2811e-40 2.2398e-40 2.13095e-40
-5.84124e-40 6.71125e-40 -6.26012e-40 5.5779e-41 -6.08986e-40 2.71038e-40 4.78908e-40 6.81666e-40
5.57508e-40 -6.74652e-40 -1.43335e-40 -1.97345e-40 5.7252e-40 -9.3254e-41 -4.47513e-40 1.28419e-40
5.27426e-40 7.19848e-40 -3.83797e-40 -6.17894e-40 6.15923e-40 2.50476e-40 -4.25119e-40 -5.84966e-40
2.63853e-40 3.5114e-41 4.54265e-40 -6.62978e-40 3.2751e-41 -6.50263e-40 4.41101e-40 6.80235e-40
6.13062e-40 5.78896e-40 -2.86341e-40 3.569e-42 -5.924e-40 -3.4656e-41 -4.10796e-40 -3.37354e-40
4.6863e-40 -1.5781e-40 4.29794e-40 -7.26635e-40 4.88151e-40 -1.72671e-40 -4.21048e-40 5.50066e-40
-2.81005e-40 4.28202e-40 -7.1897e-40 -6.94802e-40 -3.08553e-40 6.6327e-40 -5.62058e-40 -6.2039e-40
-1.12748e-40 3.20941e-40 -7.54773e-40 2.90412e-40 -5.21256e-40 -5.396e-41 3.17017e-40 -2.02824e-40
2.30884e-40 -8.1327e-41 -6.3786e-40 5.3425e-41 1.00304e-40 6.94925e-40 -3.70995e-40 -1.55382e-40
-2.2383e-41 -2.44636e-40 4.39656e-40 -7.23765e-40 -2.60503e-40 -5.65167e-40 -5.6622e-40 2.31106e-40
-1.68185e-40 7.07308e-40 5.73819e-40 -5.92674e-40 6.4765e-40 -4.42742e-40 -4.36783e-40 -6.63425e-40
6.04499e-40 4.90278e-40 -3.77203e-40 -3.67193e-40 -4.01154e-40 5.02492e-40 -3.86394e-40 6.55663e-40
0.016727313 -0.019477 4.29313e-40 -0.016240444 0.051512472 -0.045603957 0.011731458 -0.0005148181
0.0033876891 -1.8608972e-24 0.019480402 -0.0147330845 0.0023402702 -0.0041687093 0.013446855 0.0997816
0.026992006 0.0045407214 0.056544818 -0.022623375 0.032977927 5.8515e-41 -0.018800352 6.6264e-40
-4.57874e-40 -0.013479779 -0.03160305 0.018127738 0.055589844 -5.7549e-40 0.046125703 -0.0025496783
-0.000403066 -0.0070135035 4.67986e-40 -0.04904063 -0.0088768955 -0.048429817 -3.3930808e-16 1.7119062e-25
0.00816193 6.8760204e-07 -0.032172415 0.0022854754 -7.3973e-41 -0.0011229516 0.0041738865 -0.02225427
-7.7991024e-19 -4.8380424e-13 -0.015218914 -1.3129362e-05 0.08613057 -0.04930083 0.05551914 0.017395353
-0.0010808002 -0.045203988 0.058610834 -0.010395822 -0.016233655 -0.021397147 -5.8607e-40 -0.0006690046
-8.1246e-41 0.0046374057 0.06676647 -0.04286305 0.06324172 0.029021481 -0.00063133077 4.69952e-40
0.030879429 -0.092741586 0.029009461 -7.20213e-40 -0.05779215 0.000110219735 -0.016825033 -0.05112656
0.013461426 5.03967e-40 0.028594624 -0.023447722 -0.03489733 -0.00047876246 0.0027726586 -0.034020953
0.0075573064 -0.010414532 -1.6231725e-05 1.1595506e-05 -0.042350426 0.08354695 0.006286206 -0.055158246
0.0704257 -0.0007033697 -1.5253729e-18 -1.3363584e-27 0.014405494 -0.00079816766 -0.010323694 -0.03243524
-0.07162422 0.020450797 0.037100423 -0.044068705 -0.016607538 0.0036752925 -0.0018901451 -0.009650791
-7.31276e-36 -0.022648884 0.0019099257 0.017501915 -0.003025227 -0.00030389265 6.87784e-40 0.012719865
-4.3898208e-28 2.2841065e-35 -0.01059547 -4.74466e-40 -0.0020205034 -0.014435349 -0.014774971 -0.050276056

decoder_lin.2.bias f4 [288]
00000000: 3f36 d2b5 a3f6 633c 15a2 46ad 0150 1ebd
00000010: b0a5 cb3c 7b93 beba 3751 8db7 6511 223d
00000020: 8512 103d ae8d 47bb 324b 7f3c a3ed 1783
00000030: dd23 21b9 aa7a a63c 7828 aebc b32b 79b8
00000040: 846d cfb9 8b2d 1d3c 601d 35aa bc8b 33bb
00000050: 69a8 183d 679a 16a4 a9fd 34bb ba74 39aa
00000060: 7773 eaba 73d6 7cbc 2cbb 77b3 c345 933c
00000070: 7d77 eea8 8bc3 f8bc 73ca 2fbb 9952 1b3d
00000080: 2fad d7ba 347f f5a5 8aea bc3c 8aee fca7
00000090: f27c cfba 6bce 3abb b286 be3b 7214 fcb9
000000a0: a982 2bbb 0922 8f3b dd16 bd9c b61c 0db9
000000b0: 9a6b a0ba 1311 60b9 7094 eab0 4c90 1a3d
000000c0: 48e3 12bb b69f 143d 1a8c e73c dd60 1e3c
000000d0: 4a29 0b3d 480b f4bc 76af 843b 18f4 00af
000000e0: b43b fdba 6736 263d 8c0f e8af bd8d be3c
000000f0: d170 9fb6 78bf 44b7 109f 303d ffe9 33ba
00000100: b19c c0ba 4f96 1f9c 1975 3cba c95d 0bbb
00000110: 172a db3b ea4e e93b 57ce 603b 4427 bcbc
00000120: f101 c9b9 d514 e13c 3324 39bb adf9 db3c
00000130: 8771 2e3d 8199 0dbb cbbf 0cbb d9e6 5ea7
00000140: 3343 1fbb 4f88 b5bc d58c 013b dcd6 13bc
00000150: c791 84bb e84c 41b4 22d7 30ba 5028 cdba
00000160: 2dff 05bb 6410 68a1 04ac 1bba c2e9 61bb
00000170: d629 61bb e1be fe3c 82f2 d3a9 b901 32bb
00000180: 72b1 9084 292a 8cbc 3bb3 873c 5376 273c
00000190: 9b6b 333c 019a 1eb1 4fe6 2ebb e486 3abb
000001a0: 001d 363d d35a 2d3d 950e c884 cc62 a1bc
000001b0: 910f 39bb 73cd c1ba 070b 41bb 8b64 0e3c
000001c0: cfaa b1b7 3fe0 30bb 7bf7 443c 05bf 0f3d
000001d0: db40 69bc 4dba d83c fe31 99bb cee4 9db8
000001e0: 572e da3c dd07 c03b 7d22 58ba 568f b1ba
000001f0: df25 17bb 38cd f9ba 89e2 98bc b8a5 24bb
00000200: 20f1 a8b4 2d62 ed3c 043e 69ba 257b 35bb
00000210: 163b 0f3d 1335 31bb c27f c63c 63dd 4498
00000220: 003d 933c f0ec 26b8 a2b2 1fb9 28ff bbbb
00000230: eefd 54ba e922 24bb 1a9b c393 5e7a 9db9
00000240: 31d4 7b3c 7c57 e13c 8b4a 373c a477 b6a6
00000250: 9d80 3bbb e53f 98ba c0fb 043d ee04 afbc
00000260: e2b5 978a 6012 e1ba f82e 08b7 0831 98b9
00000270: 3b52 08ba 5799 f9ba c496 723c 606f a9ba
00000280: 53f8 2abd d692 2fbb a5e2 633b 2255 83b7
00000290: 51d7 223d e302 0a3c a869 84b2 b037 c53c
000002a0: 8eda 0ebb 74b2 bbb5 93d0 6fba 59fd 3ab9
000002b0: f085 caba a4c2 d3ba a462 eb8f b18a a63c
000002c0: 06e7 0f3d c72a 893c 7bdb ed3c 8152 acbc
000002d0: 91f9 35b5 ca8e ed3c d718 873c a6d5 f295
000002e0: 3256 fab9 265b e0bc 1563 dc3c f80a 55bd
000002f0: 2598 31bb 8ffc e93b 3ccc 443b a27f d08a
00000300: 3e1a 34bb aa0a 5290 715a b5b7 a817 0c3d
00000310: 745f 9fb9 2983 65b9 c66b 22bb 5677 9bbc
00000320: ee84 183d dae8 39bb 0820 39bb f61a 39bb
00000330: e535 8fba 8d54 463c 4264 c43c d0c7 ceba
00000340: a84b aeae 9096 0fb0 1c80 60bc 44c4 193d
00000350: fbdd 443d 8781 33b7 d360 1dbd c20b cdb7
00000360: 1fe1 6b3c b4c9 9abc 8bb5 a63c 4939 c5ba
00000370: 775b 3abb 6cf0 a4b8 1019 4d3c c7f8 c6bc
00000380: eb43 f93c 62d7 8e3b 2b48 34bb b981 243d
00000390: 7313 3699 f4fb 933c 7a55 0f3d 5f59 203d
000003a0: 2742 fb9d 923a 29a4 08f8 80b9 9e1f 013d
000003b0: f948 c4b8 e5ae d03c 81c3 26b4 5ee8 ccbc
000003c0: 7dfe 72b9 8099 c7bc 1b17 f4ad a985 043c
000003d0: 8ae4 07bb 8e4f cdb2 3c16 0cb0 33a2 543c
000003e0: c7c3 edbb 2787 f33c 3eb8 32bb 4ef9 133c
000003f0: bf67 a33c ccdc 373d 5097 9392 bddd 99af
-1.5662007e-06 0.013913783 -1.1290986e-11 -0.038650516 0.02485928 -0.0014539802 -1.6846328e-05 0.03956737
0.03517391 -0.0030449438 0.015581893 -4.4647705e-37 -0.00015367517 0.020322163 -0.021259531 -5.9406924e-05
-0.00039563712 0.009593378 -1.6086221e-13 -0.002739652 0.037269983 -3.265685e-17 -0.0027617014 -1.6471798e-13
-0.0017887194 -0.015431988 -5.76794e-08 0.0179776 -2.6475128e-14 -0.03036668 -0.002682355 0.03792057
-0.0016454811 -4.2586921e-16 0.023061056 -7.0202675e-15 -0.0015830083 -0.0028504382 0.005814397 -0.00048080418
-0.0026170409 0.004368071 -1.2512881e-21 -0.00013457504 -0.0012239099 -0.00021368665 -1.7067929e-09 0.03773527
-0.0022413302 0.036285125 0.028265048 0.009666649 0.033974923 -0.029790536 0.004049237 -1.1728252e-10
-0.0019320161 0.040579226 -4.22116e-10 0.023260945 -4.751703e-06 -1.172709e-05 0.043120444 -0.0006863176
-0.0014695135 -5.2802956e-22 -0.000718908 -0.0021265617 0.006688367 0.007120003 0.0034302676 -0.022967942
-0.00038339154 0.027475754 -0.0028250336 0.026852453 0.042588737 -0.0021606388 -0.0021476622 -3.0933832e-15
-0.0024301528 -0.022159724 0.001976778 -0.009023394 -0.0040456983 -1.8002504e-07 -0.00067459245 -0.0015652273
-0.0020446286 -7.862635e-19 -0.0005938413 -0.0034471606 -0.0034357212 0.031096878 -9.412351e-14 -0.0027161671
-3.4017195e-36 -0.017109947 0.016564956 0.010221082 0.010950948 -2.3079567e-09 -0.0026687568 -0.0028461749
0.04446125 0.042322945 -4.7033166e-36 -0.01970043 -0.0028238038 -0.001478596 -0.0029456036 0.0086909635
-2.1179583e-05 -0.002698913 0.012021895 0.03509428 -0.014236654 0.026456023 -0.004675149 -7.5289616e-05
0.026633425 0.0058603124 -0.0008244885 -0.0013546746 -0.0023063344 -0.0019058352 -0.018662708 -0.002512319
-3.146788e-07 0.028977478 -0.00088974857 -0.0027691808 0.034968458 -0.0027039691 0.024230842 -2.5444178e-24
0.017973423 -3.979815e-05 -0.00015229968 -0.005737204 -0.00081249967 -0.0025045222 -4.9377862e-27 -0.00030036544
0.015370415 0.027507536 0.011187206 -1.2661216e-15 -0.0028610595 -0.0011615722 0.03246665 -0.021364655
-1.4609188e-32 -0.0017171614 -8.117167e-06 -0.0002902823 -0.00052002416 -0.0019042891 0.014806453 -0.0012926869
-0.041740727 -0.0026790402 0.0034772542 -1.565606e-05 0.039756123 0.00842354 -1.541487e-08 0.024074405
-0.002179775 -1.3984522e-06 -0.00091482064 -0.00017832722 -0.0015451293 -0.001615603 -2.3210784e-29 0.020329805
0.03513243 0.01674403 0.02903532 -0.021035435 -6.779092e-07 0.028998751 0.016491337 -9.80801e-26
-0.00047747936 -0.027387213 0.026902715 -0.052012414 -0.0027098742 0.007140703 0.003002896 -2.0077682e-32
-0.0027481462 -4.1423413e-29 -2.1618996e-05 0.034202248 -0.0003039796 -0.00021888003 -0.0024783476 -0.018977802
0.037236147 -0.002836755 -0.0028247852 -0.002824483 -0.0010926096 0.012105119 0.023973588 -0.0015776101
-7.926043e-11 -5.223706e-10 -0.013702419 0.03754069 0.04806326 -1.0699389e-05 -0.038422417 -2.444338e-05
0.014396935 -0.018895008 0.020350238 -0.001504698 -0.0028435865 -7.8649115e-05 0.012518182 -0.024288548
0.030427894 0.0043591717 -0.0027508836 0.040162776 -9.413107e-24 0.018064477 0.034993626 0.03914773
-6.6507547e-21 -3.6695644e-17 -0.0002459886 0.031524293 -9.3596005e-05 0.025474021 -1.5531079e-07 -0.025013145
-0.00023173723 -0.024365187 -2.774985e-11 0.008088508 -0.0020735585 -2.3901318e-08 -5.09633e-10 0.012978124
-0.0072560045 0.029727532 -0.0027270461 0.009031607 0.01994693 0.044888303 -9.314306e-28 -2.7988092e-10

decoder_conv.0.weight f4 [32, 16, 3, 3]
00000000: 42ac 2cbc 5f9d 193d 29fc 8ebb a707 863d
00000010: 81fa 6f3d 5090 e83c dfb1 1c3d 66a5 85bd
00000020: 7bb5 343d 6bf6 6b3c c579 963d a2a7 223c
00000030: 8047 dbbc 9192 09bc 7c17 673c 50be 9d3c
00000040: 0856 243c 953b 813c 7cbd eabc c161 c1bc
00000050: 11ba 903b c41d d23b 7c32 12bd 2159 c73b
00000060: e124 15bc a4ba 3bbc 6149 0bbd bc8a 25bc
00000070: 1217 903b 3e8b 10bc 2752 1dba 7f42 af3d
00000080: e081 123d 0fec 79bc 845f cabd 2633 6ebd
00000090: 3dfb b33c 9198 163c b834 003d 6280 f5bc
000000a0: c527 39bb 34b2 8cbd 7800 1c3d 554e 053c
000000b0: aefb 3ebc 4a7c 85bb 2b7f 0cbd 3cc1 83bc
000000c0: 26f4 903c 63f2 b9bc c572 a7bc e8a1 2abd
000000d0: c2c9 62bd 19d9 2dbc c184 553c e39b 05bb
000000e0: 331a a6bc 3a0d d53c fb75 1b3d dead 113d
000000f0: a036 513c ff19 4fbb f3de 0c3d af0a 623c
00000100: b262 e9bc be8d 323d fbd0 883d ffde 2e3c
00000110: 77d5 a53b 260f 32bc 57e1 41bc 2153 5f3c
00000120: 6395 9a3c 44d6 343c 297e a5bc 7d30 c1ba
00000130: f1ad 6ebd 2b5c 0f3d ce8c 35bc daf9 99bc
00000140: bd0b ab3b 165e dfbb 817a 3bbd 22e4 67bc
00000150: 876a 2dbd f8c8 b93d 9b83 d63c c998 413d
00000160: ad46 913c f759 c73c f433 cd3b ffbb 623a
00000170: 84a4 cc3c dce6 5fbc 0244 073d 3fd4 f23b
00000180: 9eec 87bb c188 af3c f506 ed3c ca5b 493b
00000190: 6344 113d dcd0 b7bc 0777 1d3d b518 1f3d
000001a0: f1f8 69bc 9c34 ae3c 6471 b53b 9c0b e7bc
000001b0: 4d39 38bc 2e11 333d 2236 423c 9e1c c83c
000001c0: dca2 1b3d 6055 16bd fc01 c6bc 8e59 59bb
000001d0: a5a7 debc b806 893c 0c94 573c 96a2 b9bb
000001e0: ece1 13bb 9bba 5a3d 1d36 baba d9d8 f73c
000001f0: d724 0f3c 1244 323b bc3e 9d3c 7b18 f33c
00000200: dd84 d53c 72d7 aabc 0477 2e3d 4184 0bbd
00000210: d644 373c ebff 49bc 9d0f 08bd f8b6 d53c
00000220: bce7 93bc c199 7f3d 12e6 bf3b 7d8d 283d
00000230: 9937 58bd f45b 933b 23f8 8f3d d48e 123c
00000240: e696 113c ef89 aebd 062e 81bc 49a6 efbc
00000250: fa12 523d 597c f2bc f24d b3bc f16a 62bb
00000260: 33cc 433c 19f0 8c3c 00fd 87bc c1b5 a13b
00000270: dce9 983c 3b34 1d3d c56e fcbc b0bb 81bc
00000280: 1e58 823c db64 a8bb 1965 223c 34c1 26bd
00000290: 9b75 e6bd 90c9 493c 464f f2bc de8e 8bbc
000002a0: b0ea 5b3c c0a4 7d3c 44d9 9b3b 618a 9aba
000002b0: 510c 2cbc e758 393d 8cf0 a93b bf99 4bb9
000002c0: 0639 6bbd ef09 8a3c 6e47 9b3c 36ca fe3c
000002d0: 695b ea3b 88d3 423c 849b 88bc f1b3 4bbd
000002e0: e1e3 7b3d b1ae 28bd 9185 b93b b5cc 53bd
000002f0: 46e5 67bc 1b55 8cbc b1b8 7dbd d664 61bd
00000300: b464 90bc cfc1 8b3d fb77 d9bc 3d56 1f3d
00000310: 7e5a cfbc 6e78 adbc eeed 8a3c 19ff 1a3d
00000320: da78 d23a 3172 c3bb 873b 513c 5e6f 02bd
00000330: aa5d b8bb c27a f8bc 2903 d03c e9d4 94bc
00000340: a562 a1bd f51f 3fbd ad66 683d 47ce 45bd
00000350: 16c6 a0bd 92fd 8cbd 5ba0 e6bc cd5b e7bc
00000360: c86f 863c a734 13bd 07ed 273d e7b1 8d3b
00000370: 2438 8ebd 8cca 83bc d69b 0dba 176e 85bd
00000380: 39ce 9c3c e63c ecbb 15bd 23bc c75a 1a3b
00000390: 4be6 f9bc b1e4 86bc 1103 11bc 57ad 0cbd
000003a0: 714a dfbc 66ff f6bb 032b fd3c 2e3e 033c
000003b0: c457 13bd 5026 26bd f322 b33d 76d7 27bd
000003c0: 3ca0 cfbb 1f1f 0a3d 03cb b13c b17e c73c
000003d0: f83f 60bc ba82 a0bb 0195 ae3c 2cce 4b3d
000003e0: 51ca 86bc 8ef1 cbbb 8abf 8e3a 7cf4 dbbc
000003f0: 8079 2b3d b386 4abd f977 843c 269f b3bc
-0.010539116 0.037503596 -0.004363556 0.06544428 0.05858851 0.028389126 0.03825557 -0.06525688
0.044118386 0.014402012 0.073474444 0.009927662 -0.026767492 -0.008396761 0.01410472 0.019255787
0.010030277 0.015775481 -0.028654806 -0.023606183 0.004416712 0.0064122397 -0.035692677 0.006083623
-0.009103031 -0.011458073 -0.034005526 -0.010103878 0.0043972814 -0.00882226 -0.00060013164 0.08557605
0.03576839 -0.015254035 -0.098814994 -0.058154248 0.021970386 0.009191648 0.031300277 -0.029968444
-0.0028252464 -0.06869927 0.038086385 0.008136352 -0.011656685 -0.0040736543 -0.034300964 -0.016083352
0.017694544 -0.022698587 -0.020440469 -0.041658312 -0.055368192 -0.010610842 0.013032139 -0.0020387105
-0.020276165 0.026007283 0.03795431 0.035566203 0.012769371 -0.0031601188 0.03439231 0.0137964925
-0.028489444 0.043592207 0.06680485 0.010673284 0.0050608474 -0.0108678695 -0.01183351 0.013630659
0.018870061 0.011037413 -0.02020176 -0.0014739182 -0.058271352 0.035000008 -0.011080934 -0.018795896
0.005219905 -0.006816636 -0.045771126 -0.014153512 -0.04233792 0.09071535 0.026185801 0.047264848
0.017733896 0.02433489 0.006262297 0.00086492294 0.02498079 -0.013665881 0.03302384 0.0074105556
-0.00414808 0.021427514 0.028933981 0.0030724877 0.03546561 -0.02243846 0.03844359 0.03884192
-0.014280544 0.02126532 0.005537199 -0.028203778 -0.01124413 0.043717556 0.011853727 0.024427708
0.03799711 -0.036702514 -0.024170868 -0.003316495 -0.027179549 0.016726837 0.013157856 -0.0056651337
-0.002256508 0.053400617 -0.0014206801 0.030254768 0.008736811 0.0027201218 0.019194953 0.02967476
0.02606433 -0.020854685 0.04259397 -0.034061674 0.011185845 -0.012329082 -0.033218015 0.026088223
-0.018054835 0.06240249 0.005856284 0.04115056 -0.052787397 0.0044970457 0.0702975 0.008945186
0.008886075 -0.085224025 -0.015769016 -0.029254096 0.05128763 -0.02960031 -0.021887753 -0.0034548605
0.01195054 0.017204331 -0.016600132 0.004934997 0.0186662 0.03837989 -0.030814538 -0.015836567
0.015911158 -0.005138976 0.009911799 -0.040711597 -0.112529 0.012316123 -0.029578816 -0.017035898
0.013422653 0.015481174 0.0047561247 -0.0011790508 -0.010500983 0.0452508 0.005186146 -0.00019416864
-0.05742743 0.01685044 0.018954959 0.031102281 0.00715201 0.011891253 -0.016675718 -0.049732152
0.06149662 -0.041182224 0.0056616743 -0.051708896 -0.014153784 -0.017130425 -0.061943714 -0.055027805
-0.017626144 0.068240754 -0.026546469 0.038900603 -0.025311705 -0.02117559 0.016959157 0.037840936
0.0016057745 -0.0059645404 0.01277054 -0.03184449 -0.0056264 -0.030331973 0.025392132 -0.01816793
-0.07880143 -0.046661336 0.056738544 -0.048292425 -0.07850282 -0.06884302 -0.028152635 -0.028242016
0.016410723 -0.035938885 0.04099753 0.004324186 -0.06944302 -0.016087793 -0.00054019445 -0.065151386
0.019141303 -0.007209408 -0.009993811 0.0023552643 -0.03050532 -0.01646647 -0.008850829 -0.034344997
-0.027257176 -0.00753777 0.030904299 0.00801043 -0.03597237 -0.04056388 0.087469004 -0.040976964
-0.00633624 0.033721086 0.021703249 0.024352403 -0.013687126 -0.0048983963 0.021311285 0.049757168
-0.016453894 -0.006223864 0.0010890823 -0.026849978 0.04186392 -0.049444865 0.016170489 -0.021926474

decoder_conv.0.bias f4 [16]
00000000: 14b5 b036 80f7 33b9 0560 67b7 dde7 9d39
00000010: e235 b839 289f b439 465a 4c39 f6d5 1039
00000020: 42fb d3b8 fc4e 013a be02 be36 f454 62b9
00000030: dc94 3939 071c df38 5371 48b9 a3be 8239
5.266289e-06 -0.00017162971 -1.3791029e-05 0.00030118125 0.0003513536 0.00034450856 0.00019488586 0.00013812617
-0.000101080645 0.0004932729 5.6627605e-06 -0.00021584687 0.0001769843 0.00010638689 -0.00019115703 0.00024937568

decoder_conv.1.weight f4 [16]
00000000: d78e 113f 37af 173f 78ce 003f c9e7 103f
00000010: 53a9 183f 1a0d 2a3f 435b 173f 241e 133f
00000020: 2538 223f 717d 123f 4485 073f 28fd 2f3f
00000030: 6769 203f b02b 243f 9b3c 0b3f 4b3b 0a3f
0.5685858 0.5925173 0.50315046 0.56603676 0.5963337 0.6642624 0.5912363 0.57467866
0.6336692 0.5722266 0.5293772 0.6874566 0.6266083 0.6412916 0.5438935 0.53996724

decoder_conv.1.bias f4 [16]
00000000: 3def bebb 4e30 0f3d 11d5 923d 8c65 9ebc
00000010: e8fc 15bc 78c7 01bd 581c 0e3c a0a6 263c
00000020: 1472 6e3d 2918 983d 9137 c1b9 1137 4b3c
00000030: 2a2e 2a3c ab0d dc3c 9b48 713d 781e c83c
-0.0058268593 0.034958176 0.071695454 -0.01933553 -0.009154536 -0.03168437 0.00867375 0.010171562
0.058214262 0.07426483 -0.0003685323 0.012403266 0.010386983 0.026861986 0.058907133 0.024428591

decoder_conv.1.running_mean f4 [16]
00000000: 9931 ee37 7ccf 31b9 f6d6 1339 c962 4439
00000010: 02aa 8939 713f b238 0038 1a39 25ab d0b8
00000020: fce4 3338 8df5 2d3a ed26 9438 f20e 0d39
00000030: ab3e 4d38 9e08 4a39 1569 2539 f00e 1337
2.8394907e-05 -0.0001695733 0.00014099092 0.00018728817 0.00026257342 8.499518e-05 0.00014707446 -9.950091e-05
4.2890184e-05 0.0006636016 7.0644404e-05 0.00013452375 4.8934173e-05 0.00019267431 0.00015774772 8.765361e-06

decoder_conv.1.running_var f4 [16]
00000000: db58 ad35 f32d 0036 c3b0 b035 5adb d535
00000010: 0aef d935 03a4 e535 1388 be35 1410 a635
00000020: 9be8 f035 1621 2c36 4a40 1536 01f5 3d36
00000030: 3fbb dc35 a309 1236 19e0 9d35 dd98 e735
1.2915365e-06 1.9100232e-06 1.3164466e-06 1.5933576e-06 1.6237329e-06 1.7109563e-06 1.4195706e-06 1.2372643e-06
1.794909e-06 2.5649256e-06 2.2240151e-06 2.8305806e-06 1.6445773e-06 2.1761305e-06 1.1762633e-06 1.725533e-06

decoder_conv.3.weight f4 [16, 8, 3, 3]
00000000: e6b8 f23c 6f80 71bd bed0 33bc 4998 49bd
00000010: f96d e43a cc24 37bc c599 843c dc78 5a3d
00000020: a764 59bd 22f6 3c3d 4ac8 493d 16d2 e23d
00000030: c417 a3bd fce0 b63d fe51 c43d f70a 083d
00000040: 9b8b d03d 4653 243e 01f4 223d 1b96 8bbb
00000050: 06c0 c3bc baad 943d b1cd 54bd 362c 2f3d
00000060: d61d 253d 307a c33c 9cbe 0fbc 5c78 e9bc
00000070: 6e7b f9bd c586 7b3d 9fc6 02bc 0eb5 5fbd
00000080: a370 2dbd df75 273b 94a9 aabd 9739 54bc
00000090: f91b 0ebd 5337 22bd 323e 5c3c 40f5 653d
000000a0: d80a 6a3c c612 713d 4b58 e0bc 7db3 0fbd
000000b0: 8c5b c33c 96ea ce3c 1258 62bd 41bc 91bc
000000c0: 8a29 fb3d a74d 22bd d58d bdbd 1443 e8bc
000000d0: b4e6 b7bc 14c8 433d fe40 44bd ddbb 273c
000000e0: 7f05 2cbc f7c4 3bbd b193 593d 5e31 4b3d
000000f0: 74dc 2d3b ae53 0a3d 8c12 623d 712f f5bb
00000100: ec70 863d f9a0 fbba cac6 05bb 0cbd 2ebc
00000110: d8d7 b33d d900 72bc 3c1f db3c ec09 72bd
00000120: 017c 2a3c a5d9 b43c c391 d2bb e61a aabc
00000130: fb43 ec3b fd0d d7bc ba7c ae3c 9f70 6d3d
00000140: 7fcf a8bc f7b5 973d 418d adbc 5fec 81bd
00000150: 109c b2bc 1412 21bd 85b0 263c 7ece 253d
00000160: f281 8fbc 8775 bf3c 930b 20bc 3111 d3bc
00000170: c00f 163c 5552 c0bc a36b 99bd ba18 47bd
00000180: 2d2f a3bd 2132 bcbd 11dd 26bd ba17 923c
00000190: 5438 00bc 83a1 613c 618a b9bc 47ec 9e3c
000001a0: 9fdd acb9 0ba6 c5bc 26d6 a53d f99b fc3c
000001b0: cf10 cdbc 51ad 083d 419f 9d3d 2867 743a
000001c0: b7d6 4c3e 4c9c 143e 7e91 893d ca62 1a3e
000001d0: 9328 653c 00c5 d93c 7467 373c d7cc e1bc
000001e0: a844 2bbc bf1c af3c 2809 34bc 87ee cbbb
000001f0: 8d7e 92bd 1fad 3cbd 9f76 5ab9 a1a2 043d
00000200: 8943 5bbb 82d2 743b b8cd 55bd ef9e 02bc
00000210: 78ec 243d 4040 01bd 3dc3 123c bbad 99bd
00000220: f2c3 a4bd 1bb9 79bc 8372 073c 5601 0cbd
00000230: d3b5 a2bd 7055 58bd d097 9f3b c31f febb
00000240: 761a 003d 1893 263b 39f7 353d d204 bbbc
00000250: 0f84 1b3d 83f9 9d3c 35ac 72bd 826a c03b
00000260: d1a1 253c 0896 47bd 8f5b 083d 4927 6f3d
00000270: 6ecb a7bd 6b20 d83c 1ebd fa3d 6f1e d5bc
00000280: b34c 84bd e7bf c53d 5e5f 53bc 0f49 fcbc
00000290: d5b6 9abc 69bb e83c 1b40 5d3d 0d0e 883c
000002a0: 12f0 403d 43c5 6e3d 736a 163b 3ed2 86bd
000002b0: 1b22 0b3c e962 0b3a 8b13 e8bd 5d1b 93bc
000002c0: 0118 d5bb 645c 9fbd 6fb7 0abb f98f 83bd
000002d0: eb08 60bc eb56 bfbc 850f 5cbd 8a91 b73c
000002e0: 71d2 9ebd 5320 b2bd 0971 95bb 3b14 ecbd
000002f0: 99d3 b0bc 2b11 5b3d a3c8 833d a856 863d
00000300: ab9e 243d b42b 43bb 477d 153d 0b54 a33d
00000310: e8f1 a73c c4a3 0d3a d973 8ebc 3cf0 cebb
00000320: 57f0 673d a2d7 2a3c da7e 1b3b d0e9 0cbc
00000330: 610d 45bc 6369 a33c 3e82 3a3d b5ce 363d
00000340: 21bf f93b 4940 d3bc 8fc8 e6bc e2aa 83bc
00000350: d5de 483d a3bd abbc 0795 98bc e0f2 f83d
00000360: ab38 01bd 1373 11bc 859b 9abc 53f9 74bc
00000370: 22ae 6cbd d6f4 b8bc b845 293c 6d4a 3cbd
00000380: bcdf 993c b90c 9fbd c379 06be 48a8 38bd
00000390: 62d0 b3bd 49c0 7ebd 2313 5b3d 63e8 03bd
000003a0: 2d99 f83c 564c cbb6 02d1 a63d d289 2cbd
000003b0: e4ca cabc b320 ddb9 3f65 f5bc 9a8e f93b
000003c0: 0a2f 3a3d 801f a8bc d7cf cabc 9cb8 4cbc
000003d0: 06eb 45bc c216 9e3d 8f49 fcbc 047d 873d
000003e0: 284d 823d 764a b7bc 6706 9a3c af7d 083d
000003f0: 7265 2b3c b0de c53b 872a 4a3c 67aa 3fbc
0.029629182 -0.058960374 -0.010975061 -0.049217496 0.0017427794 -0.011178207 0.016186604 0.053337917
-0.053074505 0.046133168 0.049263276 0.11075227 -0.07963517 0.08929631 0.09585951 0.033213582
0.10182878 0.16047391 0.03978348 -0.0042598373 -0.023895275 0.07259698 -0.051953975 0.042766772
0.040311657 0.023861974 -0.008773472 -0.028499775 -0.121817455 0.061407823 -0.007981925 -0.054616027
-0.042343747 0.0025552434 -0.08333126 -0.012953184 -0.034694646 -0.039603543 0.013442563 0.05614209
0.014284812 0.058855794 -0.027385851 -0.035083283 0.023847364 0.025258344 -0.05525977 -0.017789962
0.12263782 -0.039624836 -0.09255568 -0.028352298 -0.022448875 0.04779823 -0.047913544 0.010237661
-0.010499357 -0.045842137 0.053119365 0.049607627 0.0026529105 0.03377121 0.05519347 -0.007482462
0.06564507 -0.0019197754 -0.0020412677 -0.0106651895 0.08781403 -0.01477071 0.026748292 -0.059091493
0.010405541 0.022076437 -0.0064260676 -0.02076478 0.0072102523 -0.026251787 0.021299709 0.057968732
-0.020606754 0.07407754 -0.02118552 -0.06343912 -0.021802932 -0.03932388 0.0101739215 0.04048013
-0.017518017 0.023371471 -0.0097683845 -0.025765033 0.0091590285 -0.023476759 -0.07491233 -0.048607565
-0.079679824 -0.09189249 -0.04073817 0.01783358 -0.00782593 0.013771418 -0.022648992 0.019399775
-0.00032971517 -0.024127027 0.08097486 0.030836092 -0.025032429 0.033368412 0.07696391 0.0009323233
0.20003782 0.14512748 0.067172036 0.15076748 0.013986724 0.026583195 0.011194099 -0.027563496
-0.010453381 0.021376012 -0.010988511 -0.006223503 -0.07153044 -0.04606354 -0.0002083429 0.032381658
-0.0033457002 0.0037356918 -0.05219814 -0.007972463 0.040264577 -0.031555414 0.008957681 -0.075038396
-0.08045186 -0.0152418865 0.008267048 -0.03418096 -0.079448365 -0.052815855 0.0048703924 -0.007755251
0.031275235 0.0025417265 0.044425223 -0.022829447 0.037967738 0.019284016 -0.05924626 0.0058720717
0.010109381 -0.048727065 0.033290442 0.058387075 -0.08193098 0.026382646 0.122431025 -0.026015488
-0.06459942 0.09655743 -0.012901155 -0.030796556 -0.01888601 0.028409677 0.054016214 0.016608262
0.04710395 0.058293592 0.0022951632 -0.06583069 0.008492018 0.0005317168 -0.113318525 -0.017957384
-0.0065031056 -0.07781294 -0.0021166464 -0.06423945 -0.013674001 -0.023356875 -0.053725738 0.022408266
-0.07754982 -0.086975716 -0.004560594 -0.11527296 -0.021585273 0.05348317 0.06434753 0.06559497
0.04019038 -0.0029780688 0.036496427 0.07975014 0.020501092 0.0005403126 -0.017389225 -0.0063152593
0.05662569 0.010427387 0.0023726732 -0.008600667 -0.012027116 0.019947713 0.045534365 0.044630725
0.0076216613 -0.02578749 -0.028171806 -0.016072694 0.049040634 -0.02096445 -0.01862575 0.121557
-0.031548183 -0.0088775335 -0.018872986 -0.014952022 -0.057783253 -0.022577684 0.010331564 -0.045969415
0.018783443 -0.077660985 -0.13132386 -0.04508236 -0.0877998 -0.062195096 0.053485047 -0.032204043
0.030346477 -6.058758e-06 0.08145334 -0.042123623 -0.024754949 -0.00042176768 -0.029955504 0.0076158764
0.045455016 -0.020522833 -0.024757309 -0.012495186 -0.01207996 0.077191845 -0.030796794 0.06615642
0.06362373 -0.022374373 0.018801881 0.033322986 0.010461198 0.0060385093 0.012339241 -0.011698342

decoder_conv.3.bias f4 [8]
00000000: f9ce 1eb3 f8d4 afb4 17d3 3236 672d 4437
00000010: c832 2bb7 bc14 2d38 9039 c0b6 42fe 91b6
-3.6975482e-08 -3.2751245e-07 2.6646937e-06 1.1693081e-05 -1.0204218e-05 4.1265725e-05 -5.728747e-06 -4.3509363e-06

decoder_conv.4.weight f4 [8]
00000000: 8f61 bf3f 3f68 e43f e2f9 b13f 921f c03f
00000010: 20b0 0e40 17f6 f93f 5308 be3f 1349 d43f
1.4951648 1.7844313 1.3904383 1.5009634 2.2294998 1.9528226 1.484629 1.65848

decoder_conv.4.bias f4 [8]
00000000: 5c82 6e3f 4bb7 493f b7e3 d33f 898e 7f3f
00000010: 570f 1c3f 9744 863f 5eea 843f 0ae7 983f
0.9316766 0.7879531 1.6553868 0.99826866 0.60960907 1.0489682 1.0384023 1.1945508

decoder_conv.4.running_mean f4 [8]
00000000: e7db d73b 90f1 3c3c 29fc 063c 1a4a 013c
00000010: 8221 433b 505b d2ba c7f7 463c 34be 3c3c
0.0065874937 0.011532202 0.008238831 0.007891202 0.002977461 -0.0016048942 0.012144036 0.011519957

decoder_conv.4.running_var f4 [8]
00000000: 95fd 273a 945e 463a f569 563a f871 2b3a
00000010: 1963 003b c80d 663a f0fe 363a a014 6d3a
0.0006408331 0.0007567194 0.0008179241 0.0006540115 0.0019590317 0.0008775857 0.00069807377 0.0009043906

decoder_conv.6.weight f4 [8, 2, 3, 3]
00000000: b68c 6b3e a5d5 68bd c1a3 2fbe f83c 0ebd
00000010: be28 ebbe c107 bcbe 62fd c43d fcd5 08be
00000020: 898a 39be c5e4 c0be af49 4fbf 65ab 30be
00000030: 0bf2 40bf e311 84bf 6f75 9dbe d46f 0d3e
00000040: a69b 5d3c f0e1 d1bc e3d1 023e f2c0 5b3e
00000050: 1518 caba dfc7 623d 1e3f fd3c 92d2 a0bd
00000060: ac23 7ebc 35c5 39be 900c 07be fc7e afbe
00000070: 4315 f3be 6f0b d3bd 9a33 6ebf e823 8dbf
00000080: 38a5 c5be 487b 05bf efa7 46bf 25a1 b4be
00000090: 9084 a63d 601a 66be 3b45 1dbe a3ad 7fbe
000000a0: 9059 91bf c6f5 72bf 2764 7bbe 6f04 77bf
000000b0: b951 49bf 70d2 46bd 207c b9be d921 f83c
000000c0: 5b1c 86be 05a2 4cbf 47ef adbc 2af0 9cbe
000000d0: 6c5e 0dbf 6b66 c03d 677b b33d d86c 79be
000000e0: 125e 9abe d562 4b3b ece7 9bbe 2cd7 90be
000000f0: 4ddb 17be 237a 8bbe 5622 6bbe 84db 063e
00000100: 8c11 bf3d e5b8 99be a7e6 81bd 88c5 1fbf
00000110: 1a5c 71bf a76e 9fbe fbcf 68bf 5b08 42bf
00000120: ea05 c03e ea26 4a3f f122 d23e afd4 773f
00000130: 49c7 a13f ff38 f03e 7e3e 3a3f 1ecd 333f
00000140: cc26 b33d 9b66 4e3e 25e3 c43e 5cc9 7a3e
00000150: f9d2 8f3e ef0c a33e a1ba 5b3e aa36 d83c
00000160: ab5c 7abd 4a07 453d 644c 203c 2d60 72be
00000170: ea89 a4be 1ab4 12be d4d4 05bf 0de6 0abf
00000180: 22ca 68be d3a8 cdbe d645 93be e136 263e
00000190: f718 5e3f bfd4 323f 2718 db3e f1c2 8d3f
000001a0: aa40 343f 49ba 793e 46d2 dc3e 23d4 133e
000001b0: 2c1c 0d3e 2643 dfbe 1f0a 7dbe cb11 863e
000001c0: c943 41bf 76ba 27bf 0a36 323e 9af1 75be
000001d0: 9111 9abe 0888 2d3e d340 b63e 66af 80bd
000001e0: 9b19 7abd 5536 06bf 4657 08bf bd78 15bf
000001f0: 8951 40bf 3f6f adbe 8a25 cebe 4f97 4ebe
00000200: 7cf1 8bbe 8982 abbe 07ee 9cbe b90c b2be
00000210: df40 cdbe 1785 9abe f212 85be 7f13 39bf
00000220: c793 e1be 5ff7 263d 3a6e 29bf 69ba 59bf
00000230: cb06 1cbf c8a6 ebbe c0fd 44bf f5b2 0cbf
0.23002896 -0.056844372 -0.17152311 -0.034726113 -0.4592952 -0.36724666 0.096186414 -0.13362879
-0.18119253 -0.37674537 -0.8097181 -0.17252882 -0.7536933 -1.0317959 -0.30753657 0.1381219
0.013525879 -0.02562043 0.12775378 0.21460322 -0.0015418554 0.055366393 0.030913886 -0.07852663
-0.0155114345 -0.18141635 -0.13188386 -0.3427657 -0.4747716 -0.10304915 -0.9304749 -1.1026583
-0.38602614 -0.5214124 -0.77599996 -0.35279194 0.08130753 -0.22470999 -0.1535844 -0.24968581
-1.1355457 -0.9490627 -0.24549924 -0.9649114 -0.78640324 -0.048540533 -0.36227512 0.030289577
-0.26193509 -0.7993472 -0.02123226 -0.3065198 -0.552222 0.09394535 0.087637715 -0.24357927
-0.30149895 0.003103425 -0.3045038 -0.28289163 -0.1482975 -0.2724162 -0.22962317 0.13169676
0.09329519 -0.30023876 -0.063428216 -0.62410784 -0.9428116 -0.3113911 -0.90942353 -0.75794
0.37504512 0.7896563 0.41042283 0.96808904 1.2638942 0.46918485 0.72751606 0.7023486
0.08747634 0.20156328 0.38454548 0.24490875 0.28090647 0.31845805 0.21457912 0.026393253
-0.06112353 0.048102655 0.009783838 -0.236695 -0.3213647 -0.14326516 -0.52277875 -0.5425728
-0.22733358 -0.40167865 -0.28764218 0.16231872 0.86756843 0.69855875 0.42791864 1.1075116
0.7041117 0.24387468 0.43129176 0.14436392 0.13780278 -0.43605918 -0.24710892 0.2618545
-0.75494057 -0.6551889 0.17403427 -0.24017945 -0.30091527 0.16946423 0.35596332 -0.062834546
-0.061059576 -0.52426654 -0.5325817 -0.58387357 -0.7512441 -0.33873937 -0.40263015 -0.20174907
-0.27332675 -0.33498028 -0.3065035 -0.34775332 -0.40088555 -0.30179664 -0.25991017 -0.72295374
-0.44058058 0.040763255 -0.6618382 -0.85050064 -0.60947865 -0.46025681 -0.7694969 -0.54960567

decoder_conv.6.bias f4 [2]
00000000: 95c3 78bf 0e85 53be
-0.97173434 -0.20656225
