pretrained_model/encoder.pth (torch, 189298 bytes, 16 tensors)

encoder_cnn.0.weight f4 [8, 2, 3, 3]
00000000: db81 a1bb 5d09 f13a 0343 293b cc5a 1f39
00000010: bd7c dc39 3362 d43a 1e8d 703b ec62 c8bb
00000020: 257a c9ba 66cd 123e ddbc 6b3e 896f 493e
00000030: 4b83 3d3d 279e eb3c 5971 7abc 6a4b 65be
00000040: 4bbe 88be 7052 73be 9b80 123e ae15 2b3d
00000050: c868 22be bd59 7a3e 1463 dc3d 3c91 90be
00000060: 838a ce3d f360 e23c f631 22be aaef 03bb
00000070: 396e 4a3b fe3c 2abb 0745 b13b 6caa 9cba
00000080: 4e8a 84bb 6ed4 b0bb 8976 a33a ed12 893a
00000090: 5408 2e3e 946e 463e 51f7 a33d 4c3c f13d
000000a0: 3009 af3d 6aec 03bd 7505 f4bd 3455 86be
000000b0: 5ca0 68be 83d7 75bb ad07 09bb 3dee 8bba
000000c0: 0625 403b 49de 91b9 54b8 e13a 4f95 d1b7
000000d0: e448 4cba c1d6 7c3a 9fba 4d3b fcb1 3d3b
000000e0: 39c0 02bb 0072 0fbc 522b 08bc afbf 69ba
000000f0: c004 21bc 3e1d 62bc 6dc5 5e3b 4450 163e
00000100: 7e33 1a3e 6ac4 853d 6143 fb3d 231e 263e
00000110: a26e 113e 7d61 fa3c dcc8 993d 99f2 8d3d
00000120: b5a5 d9bd c2c1 86bd 1b51 f8bc 9a85 c33d
00000130: 5ed5 423e 4c98 973d 47b1 ff3d 31b9 623e
00000140: c9df 9e3d 0eae 1239 78c0 523b 3265 bdba
00000150: 7c3a 3d3a 3cae e1b7 0b7a ae39 6f00 c33a
00000160: ce90 873a 72f8 b5bb 0a0c 5d3b 12d2 273b
00000170: b7cc 043b 333a 293a 49aa 1c39 cfb8 60ba
00000180: fb30 1fbb 84cb 22bb 11ce d93b e662 ee3d
00000190: 74a2 82bd 776d 7abe d0ea 8cbd b76a 57be
000001a0: 24de d8bd 74d0 55be c15f bfbd 159b c33d
000001b0: 20f3 e63d bf1e 1a3e 6dc6 b03d b4b3 aebd
000001c0: 3848 343e cd1d 523e 3f33 6ebe 3153 c6bd
000001d0: a083 533d 8d32 a23a bb1b 98bb 4fcf a4bb
000001e0: d4f0 b0ba 601e 79b9 4f22 3eba 7f24 c63a
000001f0: 3dda a53a cd1b 51bb 4852 a6bc 3387 51be
00000200: d063 84be c2ab 363e d468 ae3d 95c9 30be
00000210: e323 163e 6398 563e cbd7 443d 4199 53bb
00000220: ed07 773a 367d 47ba dedf 2a3a c67a 08bb
00000230: 71b3 08bb 01be 02bb d901 fb39 3d86 533a
-0.00492881 0.0018389631 0.0025827296 0.00015197246 0.00042054607 0.0016203582 0.0036705206 -0.006115308
-0.0015371485 0.14336166 0.23021264 0.19671454 0.04626779 0.028761936 -0.015285813 -0.2239205
-0.26707682 -0.23761916 0.14306872 0.041768722 -0.15860283 0.24448295 0.10761085 -0.28235805
0.10085013 0.02763412 -0.15839371 -0.0020131865 0.0030888452 -0.0025976296 0.00540984 -0.0011952645
-0.0040448075 -0.0053964173 0.0012471239 0.0010457911 0.16995364 0.1937812 0.08006156 0.11779079
0.08546674 -0.032207884 -0.11915103 -0.2623688 -0.22717422 -0.0037512488 -0.0020909116 -0.0010675859
0.0029318943 -0.0002782217 0.0017221072 -2.4984269e-05 -0.0007792844 0.0009645038 0.0031391752 0.0028945198
-0.0019951 -0.008755207 -0.00831111 -0.0008916808 -0.009827793 -0.013800917 0.0033992187 0.14679056
0.15058705 0.06531604 0.12268711 0.16222434 0.1420236 0.030564064 0.07509014 0.069310375
-0.10627309 -0.06579925 -0.030312112 0.09546967 0.19026706 0.07402095 0.12484985 0.22140957
0.077575274 0.00013988485 0.0032158177 -0.0014449714 0.00072184927 -2.6903224e-05 0.00033278795 0.0014877449
0.0010342838 -0.0055532986 0.00337291 0.002560739 0.002026362 0.0006455511 0.00014940755 -0.00085724605
-0.002429067 -0.0024840543 0.0066468795 0.11639957 -0.06378642 -0.2445582 -0.068807244 -0.21036802
-0.10589245 -0.208803 -0.093444355 0.09551064 0.11276841 0.15050791 0.08631597 -0.085303694
0.17605674 0.2051918 -0.23261736 -0.09683836 0.0516392 0.0012374684 -0.0046419776 -0.005029596
-0.0013499507 -0.00023757806 -0.0007253037 0.0015117078 0.0012653541 -0.003190744 -0.020302907 -0.2046173
-0.258574 0.17838958 0.08516088 -0.17264397 0.14662127 0.20956568 0.04805736 -0.0032287391
0.0009423483 -0.00076099054 0.0006518344 -0.0020825132 -0.0020858909 -0.0019949677 0.00047875827 0.00080690143

encoder_cnn.0.bias f4 [8]
00000000: 00bc 893d 504f 9cbc ca2d afba 1cac 063f
00000010: 89d9 783e 35c0 d13e 5a67 183e 0d9b 11bc
0.06725311 -0.019080788 -0.0013365087 0.5260637 0.24301733 0.40966955 0.14883175 -0.008887065

encoder_cnn.2.weight f4 [16, 8, 3, 3]
00000000: acef 243d ad52 34bd 7391 44bd 1b8f c73d
00000010: e3c3 23be 3b29 e8bd 2c8b 4c3c b098 fcbd
00000020: c64f 76bd 5122 1b3c e14b 873c 77a7 d23b
00000030: 3f88 27bc da79 8f3c 3e62 333c 8c20 da3a
00000040: 997d 3e3b 0485 caba fd68 343c 82e6 dfbb
00000050: 7401 b93a 0abc 11b9 c703 5dbc 2234 073b
00000060: c29f c0bb 63d1 aa38 3a50 0d3c 2dbf 28bd
00000070: 6cb1 293d df94 9d3d 6d83 3dbe 9464 723d
00000080: 418e c33d c568 32be 84f5 363e 9509 ac3d
00000090: c146 cfba 4cdf a537 812c 0e3c e166 5ebc
000000a0: 2609 de3a a306 a83a 1f5c 1ebc 2db2 443c
000000b0: 9689 183c e2b2 d7bc a81c 083d 2e7e 97bc
000000c0: a886 db3c 1d06 d93b ad09 28bc 5ddf a53d
000000d0: 28df c8bc f844 8fbd 266c 54bb 46b2 0a3c
000000e0: 41ad cf3b e57a 3d38 83b0 7e3b 7237 80bb
000000f0: ab5c 4ebb f26b 80bb f7a2 813b 8448 9bbb
00000100: 16f9 773b 31b4 aabb d36f ac3b 260e 0c3c
00000110: 8aa0 9abb 6aec eb3b 91e2 cbbb 658a 02bc
00000120: 3e85 983c fb5e 5c3d 3d69 4a3d ded4 c73d
00000130: 8cd4 5d3e 48c9 023e 88ab 90ba 3f87 a2bc
00000140: 990b 64bc 20cf 633b c149 023b 998b 0d3b
00000150: f553 38bb 522c 383b 2cf7 533b d39a 8e3b
00000160: 7629 6c3c 5606 eb3b ed1a ae3b bfc4 80b9
00000170: 2275 013a ef55 f6ba c2e9 33ba b829 2a3b
00000180: e880 633a ce6d ecbb 50fe 643b c68c 233d
00000190: ad31 aa3d 3c31 773d c373 54be cc6f 6abe
000001a0: 0751 13be 4d83 03bb eb2b c73d e601 7a3d
000001b0: 502c 013c f63f 40bb f0ab 0d3b 8463 10bc
000001c0: 9399 32bc 86f9 19bc 5963 973b a5f4 863b
000001d0: fb22 343c 8f8b efbc 9e34 14bd 93d8 d0bb
000001e0: 5b3c 82bc 7776 343d 5e39 7e3d 3b52 1fbc
000001f0: 4cdf 4bbd c723 f3bb d45f 9b3a 3788 703b
00000200: 4a0d 4ebb 4b60 513b ba4c f2ba f3f6 813a
00000210: b784 61bb ab95 13bb 8eb4 b63b 5cf7 f93a
00000220: 43c9 ffba 8644 133c 1aca 543b 583b 42bb
00000230: df24 0d38 5ea8 a83b 9404 8a3b ff20 16bc
00000240: 561a c33b 8ec0 00bc f81c 933c d76c 87ba
00000250: 1ccc 6e3b 8713 88ba 57d0 a6bb 11ff 573a
00000260: 63aa cabb dd45 8abd 46a2 8d3d 42cc 713d
00000270: 078d 0d3d 91aa c13d 973a 893d 97b5 183d
00000280: cede 0a3d 07fc d13c 1eee 8abd c02c 633d
00000290: 6010 af3d 6bec 3c3d ba8d c73d 367a a33d
000002a0: f8ac b03c f2ab 463d 6eb0 e4bb 52a5 ef3a
000002b0: 4fa4 d23a 1280 403b 578d 943b f651 7e3b
000002c0: d7ab 7e3b a8cc 50ba 1465 ee3a 1bf2 723b
000002d0: c116 363c d8bf e43d ab98 f13d 726c d33d
000002e0: a9c3 0d3e b013 7f3d 8013 ba3c 8ea8 aabc
000002f0: 1085 b3bd 3125 1e3b 140b 3c3c f26c 983c
00000300: e49c 3e3c e7c7 933a 9d37 073c 8fc3 d43b
00000310: f90c 4db9 a76e 5eba a33c 2dbd 8a2b adbd
00000320: d58d 42bd 02af fdbc 604c 7bbd 8450 86bd
00000330: 37f4 fc3b 09b4 093b 1336 33bd 935b 52bd
00000340: 743b 2abe e7a5 c2bd f261 f1bd f4ba 4ebe
00000350: 0f18 8ebd 9863 3fbd 7c8f fbbc e6be 273d
00000360: e072 eebc cf07 91bd a4ec 7c3a b0d7 aebc
00000370: dd69 febc 5c79 823c bc83 ad3c d743 1a3d
00000380: 65f2 9abc eb24 e43b 5ca5 ba3b 575a 1b3c
00000390: 31be 1cbc 3af0 0bbc 9f27 263b 15f0 cabb
000003a0: 6373 dcba 8528 ca3a 4c81 06b9 97c8 6ebb
000003b0: 7e19 1bba 7bc3 193c 6c5e b33b 1c50 e1ba
000003c0: ffb1 e43b 1c38 daba a977 4c3a 1a2c 843d
000003d0: bba0 fabc 2d79 e7bd c5e9 343c 425e 3b3c
000003e0: 0ef7 59bd 57fb e1bd b1aa 4dbc a5b6 103d
000003f0: f457 5ebb e3fc c4bb 9863 09bc cd56 963b
0.04026763 -0.04402416 -0.047990274 0.09744092 -0.15992694 -0.11335989 0.012484353 -0.1233381
-0.06013467 0.009468631 0.016515674 0.006428655 -0.010225355 0.017514158 0.010948716 0.001664178
0.0029066561 -0.0015451019 0.011011359 -0.0068328986 0.0014114813 -0.00013898328 -0.01348967 0.0020630439
-0.0058784196 8.145233e-05 0.0086250845 -0.041197944 0.04142897 0.076944105 -0.18507166 0.05917795
0.09548617 -0.17422779 0.17867094 0.08400265 -0.0015813933 1.9773513e-05 0.008677603 -0.013574333
0.0016939982 0.0012819361 -0.009665518 0.012005371 0.009310147 -0.026330415 0.033230454 -0.018492784
0.026797608 0.006623043 -0.010256213 0.08099244 -0.024520472 -0.069955766 -0.0032413094 0.008465355
0.006337792 4.5175566e-05 0.0038862533 -0.0039128596 -0.003148834 -0.003919118 0.0039561945 -0.004738869
0.0037837676 -0.005209469 0.005262354 0.008548295 -0.004718845 0.0071998136 -0.006222077 -0.007967566
0.018618222 0.053801518 0.04941677 0.09757398 0.21663111 0.12772095 -0.0011037448 -0.019839881
-0.013918781 0.0034760907 0.0019880387 0.00215981 -0.0028126214 0.002810259 0.003234337 0.0043519526
0.014414182 0.007172386 0.0053132684 -0.0002456065 0.00049384136 -0.0018793921 -0.0006863141 0.0025964808
0.00086785713 -0.007215238 0.003494162 0.039929174 0.08310256 0.060349688 -0.20747285 -0.2289421
-0.14386378 -0.0020067275 0.097251736 0.061036967 0.0078841 -0.0029334999 0.0021617375 -0.008812789
-0.010900873 -0.00939787 0.0046199975 0.0041185194 0.010994668 -0.029241351 -0.036182992 -0.006373474
-0.01589792 0.04405829 0.06206643 -0.009724195 -0.0497735 -0.0074200365 0.001185412 0.0036702284
-0.0031441026 0.0031948264 -0.0018486001 0.0009915516 -0.003441138 -0.002251963 0.005575723 0.0019070911
-0.0019514937 0.008988505 0.0032469095 -0.0029637422 3.365136e-05 0.005147024 0.0042119715 -0.00916314
0.005954067 -0.007858409 0.01795815 -0.001033212 0.0036437577 -0.0010381796 -0.005090754 0.0008239607
-0.0061848625 -0.067516066 0.06915717 0.059032686 0.034558322 0.09456361 0.06700628 0.037282553
0.03390389 0.025632871 -0.067836985 0.0554626 0.08548045 0.046123903 0.09743829 0.07982294
0.021566853 0.048503824 -0.00697904 0.0018283522 0.0016070696 0.002937321 0.0045334506 0.0038806177
0.0038859749 -0.00079650665 0.0018188083 0.0037070576 0.011113823 0.11169404 0.11796697 0.10323419
0.1384417 0.062274635 0.022714376 -0.020832326 -0.08765614 0.0024131055 0.011477251 0.018606637
0.011634085 0.0011274786 0.008253005 0.006493039 -0.00019555156 -0.00084851164 -0.042294156 -0.0845557
-0.047498543 -0.03096724 -0.061352134 -0.06558326 0.0077195424 0.002101185 -0.04375274 -0.051356863
-0.16624242 -0.095042996 -0.1178626 -0.20188504 -0.069381826 -0.04672584 -0.030708067 0.04095354
-0.029107511 -0.070815675 0.00096482993 -0.021343082 -0.031056339 0.01592701 0.02118098 0.037662353
-0.01891441 0.006962409 0.005695982 0.009481988 -0.00956683 -0.008541161 0.0025353206 -0.006193171
-0.0016819056 0.0015423453 -0.00012827403 -0.0036435479 -0.00059165794 0.009384985 0.0054739024 -0.0017190012
0.0069792266 -0.0016648802 0.0007799813 0.06453724 -0.03059422 -0.11302409 0.011042063 0.011436047
-0.053214125 -0.110342674 -0.012552903 0.035330433 -0.0033926936 -0.0060115918 -0.008385561 0.004587984

encoder_cnn.2.bias f4 [16]
00000000: 1f22 cdb6 1059 3738 1443 4eb7 ae5b d7b7
00000010: 5216 76b7 48d7 57b4 846f 76b6 2e99 2c37
00000020: 57f3 99b7 cf7c fb36 7ba3 ddb6 834c 3036
00000030: e6e5 1cb8 334c e337 b5b6 d6b7 b382 0fb8
-6.1134483e-06 4.3713546e-05 -1.2294175e-05 -2.5672689e-05 -1.46679395e-05 -2.0101754e-07 -3.6721767e-06 1.0287664e-05
-1.8352335e-05 7.4949126e-06 -6.605345e-06 2.627058e-06 -3.7407408e-05 2.7095992e-05 -2.5595868e-05 -3.421558e-05

encoder_cnn.3.weight f4 [16]
00000000: fd49 723f 40ab 7d3f 49b4 573f b045 793f
00000010: 4c5a 663f 1130 703f e09d 313f 8a36 673f
00000020: 06ca 713f eedd 4f3f 2cab 463f 41c0 5d3f
00000030: 4a1f 723f b738 5b3f d8b3 893f 534d 623f
0.9464415 0.9908943 0.8425947 0.9737196 0.8998153 0.93823344 0.69381523 0.90317595
0.9444889 0.8119801 0.7760494 0.8662148 0.94578993 0.85633415 1.0758009 0.8839924

encoder_cnn.3.bias f4 [16]
00000000: 8820 c23c fd9b ed3d ae00 163e 8d24 d4bd
00000010: 6cd7 293e ef8b e13e d070 b33e a3dd de3d
00000020: 862c 8e3e 2b82 133d a51b 433e c6f2 083e
00000030: 4034 c33d 88ca 8c3e 86c7 6b3b 5335 ea3d
0.023697153 0.11602018 0.14648697 -0.10358534 0.16586083 0.44052073 0.35047007 0.108821176
0.27768344 0.03601281 0.19053514 0.1337386 0.0953145 0.2749827 0.003597708 0.11435952

encoder_cnn.3.running_mean f4 [16]
00000000: e928 aeba ea80 26bd bdec d93d e4c1 53bf
00000010: 8e4e b6bc ec05 e53e 84b3 883e ad3c 0b3d
00000020: 240a a23d f63f c53d 387d cbb9 d54a 5f3d
00000030: 2f64 283c 4579 493e 9c46 acbe 269c c6bc
-0.0013287339 -0.040650286 0.10640857 -0.8271773 -0.022254255 0.4473108 0.2669946 0.03399341
0.079120904 0.0963134 -0.00038812472 0.054514725 0.010277792 0.19675167 -0.3364762 -0.02424438

encoder_cnn.3.running_var f4 [16]
00000000: d24a d23d 7c42 7a3d 946d 3d3d 2f24 353d
00000010: 9122 483d 87f0 0e3e 270d b63d 23b9 9f3d
00000020: 7b6b d03d 2aa2 213d 86d7 a53d 6a0f 5b3d
00000030: e06b 0f3d 30cc 8c3d 1c79 bf3d aead 233d
0.10268177 0.06109856 0.04624708 0.04422396 0.04886109 0.13958941 0.08889227 0.07798984
0.1017675 0.039461292 0.080977485 0.053481497 0.035014987 0.06874883 0.09349272 0.039960556

encoder_cnn.5.weight f4 [32, 16, 3, 3]
00000000: fc9c d8bd 7b1b f5bd 0b5b 703d 485e 1b3d
00000010: 6007 c63d a6b7 b73d 1224 45bc 115d 103d
00000020: 4808 973d de3b b23d cba3 e33d cef1 733b
00000030: ae48 7f3c c459 82ba f5b3 223d 1c69 85bc
00000040: 3a08 bcbd 6af1 5fbe 4c02 f43b bb79 183d
00000050: 96a8 193c 5a7b d8b9 e69f 603c 4527 c73b
00000060: 57e5 76bc 0c84 5bbc 45bf 1abc 78f4 343d
00000070: 2d2d b83d e6a6 47bb 0ab9 77bb fa7a f53c
00000080: a539 b1bb eb9b d4bd d11d a0bd 7f21 d9bd
00000090: 5a0f dc3b cf17 b33c 3eeb 9e3c 0403 053c
000000a0: 4eb4 513a 2f92 0cbc 124b 0a3d 618d b13c
000000b0: 9d7b c4bb 4b4b a1bd 6e93 913c cfcf b63d
000000c0: bea0 84bd 758a 75bb f108 10be e741 883d
000000d0: c39d 0fbc 4f37 33be 76ca d33a 5b94 9fbb
000000e0: 1e5a ae3c 5f99 69bc 3295 293d 7b1a a43b
000000f0: f2a1 94bc 4c99 3b3d e7d1 703b 171a 3dbc
00000100: 91af 26be bb44 913c 74b5 c33d fc95 173e
00000110: 952d ca3d b754 35bc 671b 023e c1fb 7b3d
00000120: 99cd 3d3d 3a67 cf3c df76 103e 0186 65bd
00000130: 22ce bfbd 766e c63c a458 c9bc 7186 29bd
00000140: 6ed7 25be 1674 62bb 9fa1 1ebc 8ef1 2f3c
00000150: 0cd8 c93b 17b9 3f3d c864 b43c 84ec cbb9
00000160: 4a95 5e3c 1a35 513c 4e8a 87bc b088 e4bc
00000170: 5394 fb3c 7163 25bc 7ec4 333d eb12 a23c
00000180: 11f0 85bd 60f4 acbc 2a93 7abd 1112 d33b
00000190: 6519 133d 2ccf 273b ae6b 37bc ee6d 66bb
000001a0: 72e2 e1ba 5afc de3c 24d7 bb3c 508e 08bc
000001b0: 608b 073d b6fe 273c 1fc2 313c 9682 99b9
000001c0: b5a2 1f3c 2f34 f23b 9a39 603c 58ec 7b3b
000001d0: 959a 5cbc eb3c 153c 07d6 ab3b bf5f fb38
000001e0: 2d87 c43c 36ed 29bb 62bc 663c 70fc a83c
000001f0: fd91 a73c 0fd3 9c3c 2691 3f3d 2813 9a3d
00000200: f89d b7bb bd1e e8bb 8426 003e e5a4 e93d
00000210: 248c 82bd b541 a03c 0142 3d3d c744 353c
00000220: e614 bc3c 4b78 d43b 1018 513c dcf4 a8bb
00000230: a291 f4bb 6e9a bb3c ecda 91bb 2ccc 5bbb
00000240: 80bc bf3c ec66 973a e547 8b3b 2808 18bd
00000250: d122 08bc 4dbc 2d3d 82f3 9cbb 7ea8 4b3b
00000260: a85a 883c a2fe 59bb a9a7 32ba bdbc c83c
00000270: 364f c8bb 7470 4dbb 94dc 80bb 9f71 62bc
00000280: 7961 aabb e051 b83c 1732 2cbc 7f96 283d
00000290: 1094 393d b72a c53d 44ea 94bd d6e5 4b3c
000002a0: e25a 9bbd d0ca 2dbe bfdf 17be e5e1 7fbb
000002b0: c5ab 2b3c 5d0c 73bb ec5a 013c 4a4e 8e3c
000002c0: e32b 623b 1eac ccbc 7f04 eebb 626f 023c
000002d0: ff3c 80bb ae71 f7bc ecd8 0fbd 7db2 36bd
000002e0: 3ef3 65bd a151 43bd 84c4 aabc c445 413d
000002f0: 20da 9cbc 37a3 eb3c 6bc7 1bbc 6d37 e23c
00000300: 56fd c73b c0be 3b3c 1c83 5ebc 4bc9 383c
00000310: cc51 5fbc 528c 003c 8bfe 9b3c 064e 873c
00000320: 733f 8e39 d73a 0a3e 6bf5 c4bc 0cc5 33be
00000330: 95ff a53d f164 3abd d495 a6bd d771 1f3c
00000340: f25c f53a db56 00bb 04d5 4abc bc33 c23b
00000350: b2b1 033d 048c 5bbc 9783 d23b 6ca0 22b9
00000360: b269 1ebd ca86 a4bc e9c3 433d 0080 debc
00000370: cd3f b13c f9e7 75bb 21bb 1abc 57a1 4abb
00000380: 727b 173c fefc fb3c 8236 fb3c a0aa e93c
00000390: d579 fe3d 1674 aabd e2a5 ed3c 6b9a 8f3c
000003a0: 816c c4bc 4b2a 97bd 0dd8 7a3d 0c3d 27bc
000003b0: 9b5f afbd ca2a 4fbd b6f5 94bb 273b 743c
000003c0: 222e d03b 909f 353d 4953 98bc ad31 9fbc
000003d0: e4e6 ddbc a456 ae3c 4d5f 7bbd c6fd 59bd
000003e0: 8b10 be3c 3b00 70bd 2d74 3c3d 97f2 ca3d
000003f0: 730d 6dbd 894a 7dbd c3ab 0c3e b44e 273d
-0.105768174 -0.11968132 0.058680575 0.03793171 0.096693754 0.08970575 -0.012032526 0.035245005
0.073746264 0.08702825 0.111152254 0.0037222984 0.015581293 -0.0009944965 0.0397224 -0.016285472
-0.091812566 -0.21869436 0.007446563 0.037225466 0.009378573 -0.00041290635 0.013709998 0.0060776793
-0.015069327 -0.013398182 -0.009445016 0.044178456 0.089929916 -0.003046447 -0.00377995 0.029965866
-0.005408483 -0.103813015 -0.07818187 -0.10602092 0.0067156972 0.021861939 0.019399282 0.008118395
0.0007999585 -0.008579775 0.033763 0.02167386 -0.005996181 -0.07875689 0.017770495 0.08926355
-0.06475972 -0.003746656 -0.14065911 0.06653195 -0.008765641 -0.17501567 0.001615836 -0.0048699803
0.021283206 -0.014257758 0.04140205 0.0050080395 -0.018143628 0.045800492 0.0036746205 -0.011541865
-0.16277911 0.017732969 0.09556094 0.14803308 0.09871975 -0.011067561 0.12705766 0.061519388
0.04633865 0.025317777 0.14107846 -0.056036 -0.093654886 0.024222594 -0.0245784 -0.04138798
-0.16195461 -0.0034554056 -0.009682088 0.0107387435 0.006159788 0.046807375 0.022020712 -0.00038895395
0.013585398 0.012769008 -0.016545441 -0.027897209 0.030710375 -0.010094509 0.04388856 0.019784411
-0.0653993 -0.02111262 -0.061175503 0.0064413627 0.03591289 0.0025605662 -0.011195106 -0.0035160738
-0.0017233624 0.02721994 0.022929735 -0.008334711 0.033091903 0.010253599 0.010849505 -0.00029279728
0.009743382 0.0073914747 0.013685608 0.0038440432 -0.01346459 0.009108762 0.00524402 0.00011986447
0.023990238 -0.0025928742 0.014083 0.020628184 0.020455355 0.01914361 0.046769284 0.07523185
-0.005603548 -0.0070837424 0.12514693 0.11408404 -0.06374386 0.019562582 0.046205524 0.011063761
0.022959184 0.0064840666 0.012762085 -0.0051561426 -0.00746365 0.022900786 -0.0044511463 -0.0033538444
0.023405313 0.0011551059 0.004250514 -0.037117153 -0.008309082 0.042415906 -0.0047897706 0.003107577
0.01664479 -0.0033263345 -0.00068151444 0.02450406 -0.0061129583 -0.0031347545 -0.003932545 -0.013821035
-0.005199608 0.022499979 -0.010509989 0.04115915 0.04530722 0.09627288 -0.07271245 0.012444934
-0.07585694 -0.16971898 -0.14831446 -0.0039044556 0.010477965 -0.0037086227 0.007895213 0.017371316
0.0034511022 -0.024984416 -0.0072637196 0.007961126 -0.0039135213 -0.030205574 -0.035118982 -0.044603813
-0.056140177 -0.04768527 -0.02084566 0.047185674 -0.019146979 0.02876435 -0.009507994 0.02761432
0.006103198 0.011459053 -0.013581064 0.011278461 -0.013630342 0.007845955 0.019042274 0.016516697
0.00027131624 0.13499008 -0.024042806 -0.17555636 0.08105389 -0.04550642 -0.08134046 0.009731731
0.0018719716 -0.001958302 -0.012379888 0.0059265774 0.032151885 -0.013400082 0.006424378 -0.00015509286
-0.038675018 -0.020083804 0.047794256 -0.027160645 0.021636868 -0.00375223 -0.009444029 -0.003091892
0.00924574 0.030760285 0.03066564 0.028523743 0.12425581 -0.08322923 0.029009763 0.017529687
-0.02397752 -0.073811136 0.0612412 -0.010207426 -0.08563157 -0.050577916 -0.0045458926 0.014906681
0.0063531557 0.044341624 -0.018594401 -0.019432867 -0.027087636 0.021281548 -0.061370183 -0.053220533
0.023201248 -0.05859397 0.04600923 0.099095516 -0.057874154 -0.06183866 0.13737397 0.04084654

encoder_cnn.5.bias f4 [32]
00000000: c3ba 6dbd de38 d5bd e3c8 56bd d4a8 923d
00000010: cb8c 7d3c c688 59bd 9de8 06be 1860 e43c
00000020: b39f a83d 5588 1ebe 510f a93b 8f62 123e
00000030: 51c3 c13d 90f6 953d e0c8 033e 3c41 c3bd
00000040: fc3e 51bc 385a 96bd c538 7d3d d41e 39bd
00000050: 2be7 3dbc 1791 43be 30f3 bb3d ad93 71bd
00000060: 5db3 01bd 1fd2 733c fd44 bebd 0924 43bd
00000070: 1923 9ebd b700 d6bc 1f3a 8c3c ac30 a13d
-0.058039438 -0.10411237 -0.052437674 0.07161108 0.015475462 -0.053108953 -0.13174672 0.027877852
0.08233585 -0.15481694 0.0051592966 0.1429541 0.09461082 0.07322419 0.12869596 -0.09533927
-0.012771364 -0.073414266 0.061821718 -0.045195416 -0.011590759 -0.19098316 0.09177244 -0.058978725
-0.031665195 0.01488164 -0.09290502 -0.047641788 -0.07721538 -0.026123388 0.017117558 0.078706115

encoder_lin.0.weight f4 [128, 288]
00000000: ce10 afbc 0f66 c8bc ce85 bd3c 008c febb
00000010: bffd 213c 6d1e 66bd 3d96 a7bc 0efa 1cbd
00000020: 6207 c7bc 62dd e83b a1d3 7a3d eee4 3d3c
00000030: 9335 82bc ef5b 1dbc de34 4f3b 0558 b1bb
00000040: 77fd 853c 97d8 033c d0a1 3a3c 5036 ca3c
00000050: 98b5 4a3c 6122 0cbd 319c 37bd 6f8a abbc
00000060: 1e3b 373d e4f7 0c3d e297 78bc b3e5 1c3c
00000070: 5cbf 6fbd f75a 623c 2b89 b2bb ef8d 30bb
00000080: 4436 463d 4354 143d 3208 793d 8e22 2bbd
00000090: 3352 2abc a210 6fbc 7619 e7bc a24f b63c
000000a0: d0a5 803c 2418 0cbc bd43 433d bfd2 58bd
000000b0: 48cc ba3c e8a5 fd3a 32ec 873c 8947 4dbc
000000c0: f44c 5c3c 2073 ecbc 6e10 24bc 0b62 1a3d
000000d0: 006c 073d 2eae f23b d93f 133b 6c5a 0abc
000000e0: c929 b4bc f4cd f33c b247 c7bc 6e2e 713d
000000f0: 6038 54bc 0cec 95bc 35a3 163d 8d21 be3c
00000100: c2c1 ac3c 27a7 45bd 2a4c 96bc 88da 243d
00000110: c16d 5abd efed e8bc d8e7 d9bc 3030 463b
00000120: 0e24 9d3c 9241 903c cb7d 17bc d2c4 243b
00000130: 35eb f5bc fc26 023d 4364 74bc 3d94 5b3c
00000140: 6b4a ff3b d664 6b3c 9751 c4bb c53b 0f3c
00000150: e35d 72bc fbda c5bc c2a5 2cba 5552 7c3d
00000160: 112c 293c 78e1 fcbc 1e4f 3a3c 404a 22bd
00000170: d233 133d 8a52 1e3d 2696 03bd a8fd 0bbd
00000180: 77d3 bcbb 8233 3dbc aaee 2fbd 1107 63ba
00000190: f52a 9cbb 579b 2a3d 42b7 bfbc 7650 dc3b
000001a0: 72fc 3bbc 815e 443c f88c f03c 9a6e 53bc
000001b0: e908 72bc 77fc 47bd 067c 093c 936c 6bbc
000001c0: db86 b4bd fe9f 133d 445c 943c 99bc 953c
000001d0: 9415 adbc 2083 81bc 9006 78bc bd19 8c3d
000001e0: 5f1b 16bc ec75 c1bc 2155 25bb 0974 95ba
000001f0: e3c2 c83c bd8b d73b 87a3 ff3b 278a 79bb
00000200: bc7a e93b 4f79 1c3b 6b77 22bd af1b b0bb
00000210: 091b d4bc 17fb ae3b 2d4c 03bd c16b 313d
00000220: 007b f4bb 7021 7cbc 0f5b f03c d883 a9bc
00000230: 98a1 edba 2c67 e5bc 74b0 42bb 5b5a 5e3c
00000240: b81a 9e3c 33c6 8e3c 4ce8 9c3c 9bd7 033d
00000250: c5ba 963b b1ed 173d e1e3 ffbc b3d4 2dbc
00000260: a1a1 e1bb 7ba8 983c d12d f83b b405 843c
00000270: 1ba6 1cba 58b9 8f3c a36e 143d 7e55 e5bc
00000280: 6155 5dbc 67bb 863b cb5f b33b 233e bdbc
00000290: 58cf 913c f7e5 9bbc 4132 3b3b a788 97bc
000002a0: 5e98 e5bc 7238 f1bb 70c5 dcbc e161 72bb
000002b0: 4ee5 cf3c 12c8 403d 27d4 fb3c 1ce3 92bc
000002c0: 48ab 213c 163c b5ba 3495 b6bc 956b 18bc
000002d0: 506c f33b 0227 ff3c a291 3dbc bba6 cbbc
000002e0: 8250 343c a6bb da3c 2945 69bc 174c 3d3d
000002f0: ead6 7a3b f351 c03c 9a32 11bc c819 5a3c
00000300: a864 7c3c 5c7a 5ebd 7a9b 58bd c50b aabc
00000310: 7875 1b3d 2e74 dcbc 7c88 313d 4be1 48bd
00000320: c9fc d1bc 44c2 a93c c612 c73c 08a4 e0bb
00000330: 5cbf 51bc 1cb0 5abc 9d52 03bd 00df 8cbc
00000340: d698 183c 101d bc3c 3ca7 0cbd e4de c63c
00000350: 2535 4dbc 7eb8 513c 364b a93a e233 3d3c
00000360: fb23 293c b90d 9fbc b527 e7bc fefb be3c
00000370: a568 2fbc 7125 ae3b 29b4 bbbc 97b2 d7bb
00000380: 9c19 873c 308a bd3c 0762 41bd 093f ad3c
00000390: f03b 753c 6821 8cbc 1f53 1f3d d7a0 243d
000003a0: 0bd8 a8bb 5b28 2cbc 32da 5abc 188d b63c
000003b0: 2d31 613d 4152 f4bc 4b3c 8bbc 8857 dfbc
000003c0: fab7 10bc f555 153d 6ea8 a5bc e66f 043a
000003d0: 4c74 b73b 44b6 95bc cb95 c2bc 5bc4 193c
000003e0: 78c0 d23c ed04 7dbb 35ff 6f3c e918 7c3c
000003f0: 84ca 3f3c 4e72 c53c e406 023d 779a 55bc
-0.021370318 -0.024462728 0.023135092 -0.007768154 0.009887158 -0.05618136 -0.020457381 -0.03832441
-0.024295513 0.007106469 0.06123698 0.011590226 -0.015894687 -0.009604438 0.0031617205 -0.005412104
0.016356213 0.0080472445 0.011391118 0.024684101 0.012372397 -0.034212474 -0.04482669 -0.020940034
0.044734113 0.034416094 -0.01517293 0.009576249 -0.058532104 0.013815633 -0.0054484806 -0.0026940068
0.048391595 0.03621317 0.06079883 -0.041781 -0.010395574 -0.014591368 -0.028210383 0.022254769
0.015704066 -0.008550677 0.047672022 -0.052935358 0.022802487 0.0019351812 0.016592119 -0.012529262
0.013446081 -0.02886349 -0.010013683 0.037691157 0.03306198 0.0074060177 0.0022468476 -0.00844441
-0.021992581 0.029761292 -0.02432618 0.05888217 -0.012952894 -0.018301032 0.03677674 0.023209358
0.021088485 -0.048255112 -0.018346865 0.04024747 -0.053327326 -0.028433768 -0.02659981 0.0030241124
0.019182231 0.017609391 -0.0092463 0.0025141728 -0.030019382 0.03177546 -0.014916482 0.013402042
0.0077908537 0.014367303 -0.0059911716 0.0087422775 -0.014792892 -0.02415227 -0.0006585979 0.061601955
0.010325448 -0.03086923 0.011371402 -0.03962159 0.03593809 0.038652934 -0.032125615 -0.034177452
-0.0057625133 -0.011547925 -0.042952217 -0.0008660416 -0.004765863 0.04165205 -0.023402814 0.006723459
-0.011473762 0.011985422 0.029364094 -0.012904787 -0.014772632 -0.048824754 0.008391386 -0.014369148
-0.08814784 0.036041252 0.018110402 0.018278407 -0.021128453 -0.015809596 -0.015138283 0.06840847
-0.009161799 -0.0236158 -0.0025227743 -0.0011402379 0.024506992 0.0065779374 0.0078014764 -0.003807673
0.007125227 0.0023876016 -0.039664667 -0.005374394 -0.025891798 0.005339991 -0.03205507 0.043315653
-0.007460952 -0.0153888315 0.029340295 -0.02069275 -0.0018129824 -0.028003298 -0.0029707225 0.013571347
0.01929985 0.017428493 0.019153737 0.03218804 0.0045999014 0.037091915 -0.03123659 -0.0106097935
-0.0068857227 0.018635025 0.007573821 0.016116 -0.00059756794 0.017544433 0.036238324 -0.027994867
-0.013509125 0.0041116956 0.005474066 -0.023100918 0.017799065 -0.019030554 0.002856389 -0.018497778
-0.028026756 -0.007361465 -0.026949614 -0.003698461 0.025377896 0.047065802 0.03074081 -0.01793056
0.009867497 -0.0013827111 -0.022287942 -0.009302993 0.0074286833 0.03114653 -0.011570366 -0.024859777
0.011005523 0.026700806 -0.0142376805 0.046215143 0.0038275071 0.023476576 -0.008862162 0.013311811
0.015404858 -0.05431591 -0.05288265 -0.020757565 0.037953824 -0.026910868 0.043343052 -0.04904298
-0.025633233 0.020722516 0.024300944 -0.0068554915 -0.012801971 -0.013347652 -0.032061208 -0.017196178
0.009313783 0.022963077 -0.034339175 0.024276204 -0.012524878 0.012800334 0.0012916091 0.011548014
0.01032352 -0.019415723 -0.028217176 0.023313519 -0.010706102 0.005314522 -0.022913055 -0.006582569
0.016491704 0.023137182 -0.047212627 0.021148222 0.0149679035 -0.017105773 0.03889763 0.04019245
-0.0051527075 -0.010507668 -0.013357686 0.022284076 0.05497854 -0.029824378 -0.016996523 -0.027263418
-0.008832926 0.03645893 -0.020221915 0.00050520746 0.0055985805 -0.018275388 -0.023753067 0.009385194
0.025726542 -0.0038607672 0.014648248 0.015386798 0.011705998 0.024102356 0.031744853 -0.013037316

encoder_lin.0.bias f4 [128]
00000000: 3a61 233d 03c0 1db5 3e0f e53c 6580 c53c
00000010: eec3 06bd 477f 23bd 324f 8fba 6ed5 aabc
00000020: ae07 afbd 4c5b 3f3d d868 a03c 7d87 36bc
00000030: b46a 1c3d 5f69 c3bc 25f7 813c 8549 4dbd
00000040: 97a9 be3a 3a70 b4bc 09bc cb3c 1d95 a0bd
00000050: 337b 533c 15a9 b53c 22c6 813d b2d2 c33b
00000060: 6846 12bb 3f78 dfbc 5189 d03b 79eb b4bc
00000070: ee54 993b 385a 16ad bc9e 123d 258c 953c
00000080: 6f24 1ebb 4cbb 57bb acbc 66bc 0490 143d
00000090: 171b 4fbd ca29 1b3d 982c a2bc 6373 febc
000000a0: e71f 25bd 7c3f 203d 0a8a e439 d845 4abb
000000b0: ce24 14bd da17 eabb 4a08 413d 7619 8d3c
000000c0: 84ee 24b8 0b80 803c 6b36 503c 8cc8 443c
000000d0: 25b6 bbbb 6aa5 293d e612 3dbb caa1 afbc
000000e0: 7d60 6e3c 72b2 59bb 8598 8cbc 57e1 7f3d
000000f0: ce91 fbbd d032 9ebc 40bb 42bd 5cdf 3f3c
00000100: 852a 6fba 6b2a ed3c 916c e6bc 84d6 4e3d
00000110: 59b8 eabc 107f 51bd dc49 363c c815 bfbc
00000120: a57d e13d 804e 793d c95b e53c 8dad 25bd
00000130: 641b 53bd d6c0 923c 56f9 83bc b8d9 4abd
00000140: de04 903c 0f3a 20bc c584 7ebd 7279 163d
00000150: 4ce6 f23c 9cb9 4b3d 1c2f 3bbd baec 6dba
00000160: 965a 96bb 882e 0281 41df 513d 4cd8 963d
00000170: 7917 ee3b f7d4 a33d e035 9d3c 4760 06bd
00000180: e815 5ab8 2068 26ba 7c00 0a3d 2bc3 37a8
00000190: 8a2e 93bc 5e6d aabb a156 84bc 54ab fcba
000001a0: 0422 4bbb 6bff 5a3d 0ec0 31bd 0bf6 96bb
000001b0: 9d1a 5eba 3431 5ebc bb5e 7191 469b 86bc
000001c0: 5acc 71bc 1032 353c 0b9d 04bd 7065 b03c
000001d0: 10eb 64ad 1f0e 903b 9e4e 43bb eeef 6b3d
000001e0: 46e6 003d 7fd3 413d 36c5 113c 8b7b 153d
000001f0: 13ed dd3c 559b b8bc 4fd5 853c 5217 4fba
0.039887644 -5.876647e-07 0.02796137 0.024109075 -0.032901697 -0.039916303 -0.0010933636 -0.020853724
-0.08546387 0.046717927 0.019581243 -0.011140701 0.038187698 -0.023853956 0.015864918 -0.05011894
0.0014546391 -0.02202617 0.024869936 -0.07840941 0.012907791 0.022175351 0.06336619 0.0059760446
-0.0022319797 -0.027279017 0.0063640256 -0.022084938 0.004679314 -8.546545e-12 0.035795912 0.018255303
-0.0024130603 -0.0032918034 -0.014083069 0.036270157 -0.050562944 0.03788165 -0.019796655 -0.03106088
-0.040313628 0.039123043 0.00043590396 -0.0030864384 -0.036167912 -0.0071439566 0.047127046 0.017224055
-3.9322782e-05 0.015686056 0.012708287 0.012010705 -0.0057285004 0.041417517 -0.0028850376 -0.021439452
0.014549372 -0.0033217934 -0.01716257 0.06247076 -0.122836694 -0.019311339 -0.047541857 0.011710968
-0.00091234624 0.02895089 -0.02812794 0.050497547 -0.028652357 -0.051146567 0.011126008 -0.023325816
0.11010293 0.06086588 0.027997868 -0.040448714 -0.051539794 0.017914217 -0.016110104 -0.04952404
0.017580446 -0.009779467 -0.062138338 0.036736913 0.02965083 0.049737558 -0.045699224 -0.00090761075
-0.0045884354 -2.3910614e-38 0.051238302 0.07365474 0.0072659818 0.07999604 0.019190729 -0.03280666
-5.1995652e-05 -0.00063479133 0.03369187 -1.0200861e-14 -0.017966527 -0.005201026 -0.01615459 -0.0019277134
-0.0030995617 0.05346624 -0.04339605 -0.0046069673 -0.00084725936 -0.013561536 -1.9040739e-28 -0.016431462
-0.014758194 0.011059299 -0.03237633 0.021532744 -1.3012494e-11 0.0043962146 -0.0029801498 0.05760186
0.031469606 0.04732084 0.008897116 0.036494773 0.027090585 -0.022535006 0.016337065 -0.00078998983

encoder_lin.2.weight f4 [20, 128]
00000000: 181e bbbc 5794 89b2 ca47 9fbd 4209 333c
00000010: 3d6c 0f3e 760f 48bb 5dca 07bc dea3 f539
00000020: f48f 993d 4198 03bd f463 9cbd e53c a93a
00000030: a30a 54be 5902 c63c d8a4 0bbc cf38 043e
00000040: cc66 5bbd 2184 0f3e 8870 01bc 37cb 713c
00000050: 6d24 afbd c489 01bd bdb1 b13c 72bf 953a
00000060: f8ec 123d 16da bf3c 8790 c3bd aaec 2fba
00000070: 801b 04bd 5c97 78aa 8bb8 b2bc 0ab7 62bb
00000080: eeca f13b 6e24 ac3b 5d58 533c 7a90 a1b9
00000090: c38c 75bd d720 793c fa5d af3c 941c 44be
000000a0: fc8b f33c 8376 753e 7137 10bb b260 89bc
000000b0: 89df 17bd 431c 2b3c e2aa cabc 5c41 903c
000000c0: 9f72 64ba 8c69 d2bd 7b92 1cbe ece4 07bb
000000d0: fed2 54ba 5b8e 283d 47e4 123c b1e0 82bb
000000e0: 60f7 003e 20f1 79ba ec20 bc3a de1e 0d3e
000000f0: 7e72 d83a 2980 50bc ecf8 3cbd 59c2 0bbe
00000100: 590c 80ba e933 aa3d d126 10be 361c 9cbc
00000110: b181 923c 9436 3e3c c1bb 87bd 271e cf3d
00000120: e0a6 57bd 7f2b c1bb fe91 50bb d985 6cbc
00000130: bc9c cfbd 3c17 403e d360 f23b b220 b43e
00000140: d48d 6a3c 9c41 d2bb 6abf 3b3d 0b5b 89bb
00000150: 29b5 45bd 3510 76bc 3cda ddba 7232 2e3c
00000160: e7c6 b3bd ca4e 0300 369e 883b bf31 e93c
00000170: 752b 4b3d 7746 3f3e 110b cdbc 4bb1 a7bd
00000180: abec dbb7 d966 9ebc 4043 e3bd 8c63 98b9
00000190: b95d 25b9 ec51 16be bf0a 81bc f00d 17bc
000001a0: c64c e7bc b3db 86bb 5fec bdbb 9ce1 f03d
000001b0: a718 893a 1406 fabb 16e0 c424 b2cb a43d
000001c0: 1955 10ba 4651 7abd d33d 143d b90b cbbc
000001d0: ef13 2b37 740c e0bd e2c1 15bb dfb8 46bd
000001e0: 4826 97bc daef 823c 7cab 03bd 959d 78bc
000001f0: 7aa3 b7ba 6d71 09be e72b d2bd f512 eb3a
00000200: 865d 4abc 978b 4b35 f443 bbbc d639 503b
00000210: f748 ccbd 9d64 be3d d7f5 183d 1991 eb3d
00000220: d40e ed3d 6f28 6cbd 9deb 403d 6af5 f9bd
00000230: 30ac e0bc 487d f73d 8a22 07bd 9fdd 75bb
00000240: fc38 9a3d 5bbe 08be 963c 13bd 2aea a53d
00000250: 2285 e1bc a051 353e 7178 ffbc 32d0 b2bd
00000260: 0c6a f23d 17d3 c83c c190 db3c 422d fdbc
00000270: 441d 1fbd 6b6d 0fac a594 63bd e206 5bbd
00000280: e39d 0a3d 3a7d 823c 5195 933c ee14 ce3d
00000290: c939 833d 43b9 4cbd d928 f33d d9c5 f43c
000002a0: b1e2 843d e16d 0bbc 994a 2f3d 819c a2bd
000002b0: e3c7 cebd a119 1a3d 1709 afbc 9158 b43c
000002c0: 079a cfb8 efa6 81bb eb98 9b3d 6905 35bb
000002d0: 86f1 88bb ea90 94bd a909 203b 4a89 b43c
000002e0: cb05 903c ffcd 2dbd 022a e9bd e5c2 9cbc
000002f0: c43b 213e bd82 fd3d 8889 7abd 2620 41bd
00000300: b045 233a 9a3a cb3c 5351 ac3d 2881 a4bd
00000310: 5182 9cbd bc0d be3d 9bac 08bd 955e b9bc
00000320: 40c5 d3bd e07c e8bd 2dfd 6fbc 8e43 bcbc
00000330: 034a 3abb e46c 9bba d107 c1bc 8410 47bd
00000340: 2c81 d03c bc5b bd3d fa9f ec3d 2be7 9abd
00000350: 919f e9bd 9edd 9d3d 451f ffbb 5970 9c3c
00000360: 4307 4a3c a660 0600 351e d43d e88e 823c
00000370: 4a88 033d 4f21 38bd 1a62 cd3c c94b 943d
00000380: 76a3 04ba 066f 51bd dfef ca3c 8189 3539
00000390: be4d 4d3d 7060 4f3d c69d 11bd 038b 6fbc
000003a0: 3f7d bfbc 3db0 d73d 4359 733d 4752 b3bd
000003b0: 0017 2cbb 0b43 513d e521 05a1 bbe4 133d
000003c0: ba58 cc3d 5486 69bd 1f0c 53bd 5533 9e3b
000003d0: 0392 bfb6 85e7 68be 379c 62bb 5753 09be
000003e0: 69e6 233d 8371 143d b56d c4bd 1b79 20bd
000003f0: 5b78 a03d 0454 54be 8769 903c c4f2 0f3b
-0.022841498 -1.6016356e-08 -0.077773646 0.0109275 0.14006133 -0.0030526794 -0.008287993 0.00046852132
0.0749816 -0.032127623 -0.07636252 0.0012911825 -0.20707183 0.024171041 -0.0085231885 0.12912296
-0.05356483 0.14015247 -0.007900365 0.014757923 -0.085518695 -0.031625524 0.021691198 0.0011424853
0.035870522 0.023419421 -0.09549051 -0.0006710986 -0.03225279 -2.2079338e-13 -0.021816513 -0.0034593963
0.0073789274 0.005253366 0.012899485 -0.00030815956 -0.059948694 0.015205584 0.021407116 -0.19151527
0.029729836 0.2397099 -0.0022005702 -0.01676974 -0.037078414 0.01044375 -0.024739686 0.01760929
-0.00087145896 -0.10274038 -0.15290253 -0.0020735813 -0.00081185985 0.041151386 0.008965558 -0.0039940705
0.12594366 -0.00095345266 0.0014353073 0.13781306 0.0016513614 -0.012725868 -0.046135828 -0.13648356
-0.0009769305 0.08310682 -0.14077307 -0.01905642 0.017884107 0.011609692 -0.06627608 0.10113173
-0.05264938 -0.0058950777 -0.00318253 -0.014436209 -0.101373166 0.18758863 0.0073967963 0.35181195
0.014316041 -0.0064165127 0.045836844 -0.0041917614 -0.04826847 -0.0150185125 -0.0016926001 0.010632144
-0.08778172 3.0377e-40 0.004169251 0.028466104 0.04960199 0.18679224 -0.025029691 -0.08188113
-2.6217042e-05 -0.019336151 -0.11096811 -0.00029065867 -0.0001577054 -0.14679688 -0.015752194 -0.009219632
-0.02823485 -0.0041155457 -0.005796 0.117617816 0.0010459617 -0.007630119 8.5381067e-17 0.08046664
-0.00055058446 -0.061112665 0.036191773 -0.024785863 1.0197035e-05 -0.10939875 -0.002285116 -0.04851615
-0.018450871 0.01598351 -0.032145962 -0.015174289 -0.0014010512 -0.13422175 -0.1026228 0.0017934727
-0.012351399 7.5826523e-07 -0.022859551 0.0031772754 -0.099748544 0.09296534 0.037343826 0.115022846
0.11575094 -0.057655748 0.0470997 -0.12205012 -0.027425855 0.120844424 -0.032991923 -0.003751613
0.075304 -0.13353865 -0.03594645 0.08101304 -0.027529303 0.17706919 -0.03118536 -0.08731116
0.11836633 0.024514718 0.026802422 -0.03090537 -0.03884627 -2.0382261e-12 -0.05556168 -0.05347336
0.03384198 0.015928853 0.018015536 0.10062586 0.06407506 -0.049981367 0.118730254 0.029879497
0.064885505 -0.008510084 0.04279575 -0.07940007 -0.10096719 0.037622098 -0.021366639 0.022014888
-9.899219e-05 -0.0039566676 0.07597526 -0.0027621633 -0.0041791825 -0.07254203 0.002441982 0.02203812
0.017580887 -0.04243278 -0.113849655 -0.019135902 0.15745455 0.12378452 -0.061166316 -0.0471498
0.0006228341 0.024808217 0.08413949 -0.08032447 -0.076420434 0.092799634 -0.033367734 -0.022628108
-0.10340357 -0.11351943 -0.014647764 -0.022981431 -0.0028425462 -0.0011858013 -0.023563297 -0.048599735
0.025452219 0.092460126 0.115539506 -0.07563623 -0.11407388 0.07708286 -0.00778571 0.01909654
0.012330833 5.85684e-40 0.10357324 0.015937284 0.032112397 -0.04495364 0.025071193 0.07241017
-0.0005059758 -0.05113127 0.024772583 0.0001731273 0.05012297 0.05062908 -0.035550855 -0.014620545
-0.023375152 0.10531662 0.0594113 -0.087559275 -0.0026258826 0.051089328 -4.510701e-19 0.036106806
0.09977861 -0.05701287 -0.05152523 0.0048278966 -5.7092416e-06 -0.22744568 -0.0034577975 -0.13410698
0.040014658 0.036241066 -0.095912375 -0.039177995 0.07835456 -0.20735174 0.017628444 0.0021964768

encoder_lin.2.bias f4 [20]
00000000: e33b 323d 3222 a83d a5f3 323c 2bb9 23bb
00000010: ff9c 05bb 2f7e d13c 469c f4ba dc15 b63d
00000020: ac82 949a b155 973d d3f7 813d 70dc 5e3d
00000030: 2816 ad3c f3a0 b93c a01c 823c 7db2 e03c
00000040: 0323 a03c 3893 6c3c 542c ed3d 3cbf 5c3d
0.043514144 0.08209647 0.010922347 -0.0024982195 -0.0020387766 0.025572864 -0.0018662296 0.08890888
-6.142248e-23 0.07389391 0.06346097 0.054409444 0.021128729 0.022659754 0.01588279 0.02742886
0.019547945 0.014439397 0.115807205 0.053893313

encoder_lin.4.weight f4 [20, 20]
00000000: 0c96 48be 3d0e 13be 60b9 e5bd 5fdd beb9
00000010: b449 64be 1856 e63d 67aa 21be 20cd 123e
00000020: f12b 6a17 e8e0 2abe f0b1 153e 31bf 8a3d
00000030: fd87 933e 3ba1 e5bc ff5f 463e 8c12 13be
00000040: 05d8 293e 9b12 bbbd bc4e 5b3e c56a 41bd
00000050: 3736 11bc 0a24 973d bf0e e33e f0e1 2e3a
00000060: 9d75 40be 2aa1 843e 35b0 05be 5bbb 1ebe
00000070: 9455 c117 4c48 983d 84a0 083e 80d9 c23d
00000080: df54 cdbd bd51 0cbd 329e f3bd 88c3 7fbd
00000090: 6783 1ebd 425e 77bd ca79 4d3e 8832 95be
000000a0: 34e2 29be 6136 153e c734 19be d0c6 74b8
000000b0: e87b 193e 8dbc 23bd fdd9 5cbe 89a1 0e3e
000000c0: ab48 fe97 62be b53d 5337 013e 874a 883d
000000d0: 2187 dfbd 1418 b63d 666c 30bd e84c 263c
000000e0: 3646 66bc 00cb 553e afc0 afbd 2146 18be
000000f0: c656 b03e 400f efbd aa26 16be f7f7 6fba
00000100: d88a dc3d 0b83 e5bd ba4a 00be 3192 353e
00000110: 7497 e796 72c2 2e3e fdea a23d 06f9 aa3e
00000120: 88e1 9abe 1e07 36bd 0567 8dbe caa4 0cbe
00000130: dd58 233e 1cdb 11be 7bba 1fbd f17a d0bc
00000140: 38fb eebd 3cef fdbd 3dc7 1a3e b0db 123a
00000150: cd31 bcbd e3a6 c53d 7b2c 2cbe efa8 d8bc
00000160: f4a7 c216 d1a9 b23c 526d d03d ab7d 203d
00000170: fa90 80bd c4be 97be cf94 51be 6b53 c33e
00000180: 9e68 3abe fb91 64be d622 1d3e 88ed 993d
00000190: 9bae ed3c 1184 573d a3fe 17be 49cf 34ba
000001a0: 65bd 47be 9a65 a4bd 1d15 6f3d 0a1b 3e3e
000001b0: 6c09 6717 247a 25bd 3768 7fbd 5b74 483e
000001c0: 1f1d ba3d e84e d23d 5798 383e fc23 aabd
000001d0: ec12 d13d 0e7a 9fbc 26d0 f43d 6b42 563d
000001e0: f086 cc3d ee63 4f3e acae 5abd 14dd c4b8
000001f0: 2e1c 0dbe 45bc ebbb 5a83 73be d6bb f53d
00000200: bf10 8997 2b20 943b 6afd b53d 5ab6 733e
00000210: 1f13 eabd 752c ed3d ac45 da3c c143 503e
00000220: 0ced 24be 7cc4 4d3e 02ce e03d 7606 98bd
00000230: 81a7 3d3e b4db e7bd cda9 223e 5394 8c3a
00000240: 6cda 8e3d 5d06 583e 1d05 ab3d 0034 88be
00000250: 400a f496 7a33 12be 05f2 a63c cec7 b0be
00000260: e8c3 e23d 561b c83d 2a0f c63d 1dab 593e
00000270: 013d cfbe fb4c 443e cb82 233d f19a a53a
00000280: aa66 73be c69e 8d3e ece5 343e 0f6b d539
00000290: d550 38be cd36 703d a434 893e e0e4 c2bd
000002a0: a2b3 1318 f3ba 433e a154 32be 0054 5d3d
000002b0: 6d42 81be a8a2 c73d e34a 3cbe 89bf 99be
000002c0: 97ec 333d fd0d 143e a352 e53d 93f6 c0be
000002d0: d9b6 3e3e 650a 5c3d 393a c23c 1ee1 31ba
000002e0: 410c dabd 95e9 87bd c658 8f3e 6dc4 50bd
000002f0: 8633 8016 c54d d0bd 4d1e 51be cf46 0fbe
00000300: 1bb7 053e b996 913d cc8b 4a3e 0e10 f3bd
00000310: ae25 023e 0ee0 09be 488b 19bd 551f 493e
00000320: c482 013e f88e 223e 9c52 cb3e 4565 b839
00000330: 2c7a 24be 3e81 123e 82bc f9bd 5937 3dbe
00000340: 9cd1 c417 d84a 51bd df65 1a3e 3869 e3bd
00000350: 1150 06bd 5a5a 1e3e 19a0 be3c 9592 193d
00000360: 5e7b 9cbd eaea eb3d b4de 153e bb8e 11be
00000370: 2334 56be 8386 9fbd bcb5 8c3e daa1 8f38
00000380: 666c 113e 0c58 a53e 01b7 903c 82d7 75bd
00000390: 3170 b917 7eda 263e d133 b53d 5ad6 953e
000003a0: 9789 393e 1314 873e ab50 af3e 6b00 203e
000003b0: 87e2 08be 6786 853d ad36 28be 1953 9cbd
000003c0: 585c 853e bf05 683c 0437 5cbe 0d14 57ba
000003d0: 8fcc 37be f1fd 81bd cd7d e33e dc58 603d
000003e0: 87d9 4117 a19d 9a3e fbc9 93be e3d0 c73e
000003f0: a52e 73be 54a2 6e3e 8291 543c 63d6 8e3d
-0.19588488 -0.143609 -0.11216998 -0.00036404558 -0.2229374 0.1124689 -0.1578766 0.14336061
7.566494e-25 -0.16687357 0.14618659 0.06774748 0.28814688 -0.028030982 0.19372557 -0.14362544
0.16586311 -0.09134408 0.21416754 -0.047220964 -0.0088630235 0.07379921 0.44347188 0.00066712406
-0.18794866 0.25904208 -0.13055499 -0.15501158 1.2493936e-24 0.074356645 0.13342482 0.09514141
-0.100259535 -0.03425764 -0.11895408 -0.062442333 -0.038699534 -0.060392626 0.2006599 -0.29140115
-0.16590196 0.14571525 -0.14961539 -5.8359292e-05 0.14988673 -0.039974738 -0.21567531 0.13928808
-1.6432709e-24 0.08874203 0.12618761 0.0665484 -0.10914446 0.08891311 -0.043072127 0.010150172
-0.0140548255 0.2087822 -0.08581673 -0.14870502 0.34441203 -0.116728306 -0.14663187 -0.0009154076
0.1076867 -0.11206635 -0.12528506 0.17731549 -3.7415643e-25 0.17066363 0.07954977 0.33393115
-0.30250192 -0.04444038 -0.2761766 -0.13734737 0.15951867 -0.1424374 -0.0389962 -0.025449248
-0.1166901 -0.12399146 0.15115066 0.0005602194 -0.09189186 0.09650972 -0.16813843 -0.026447741
3.1448384e-25 0.02180949 0.10177101 0.039182346 -0.06277652 -0.2963773 -0.20466922 0.3814958
-0.18203971 -0.22321312 0.1534532 0.075160086 0.029013922 0.052616183 -0.1484323 -0.0006897343
-0.19505842 -0.080271915 0.058369745 0.18565002 7.465202e-25 -0.040399686 -0.062355246 0.19575636
0.09087586 0.102689564 0.18026863 -0.08307645 0.10208687 -0.01946738 0.11953764 0.052309435
0.09986675 0.20252964 -0.053389236 -9.387187e-05 -0.13780281 -0.0071940743 -0.23780575 0.119987175
-8.857645e-25 0.0045204363 0.088862255 0.2380003 -0.11429428 0.11580745 0.02664455 0.20338346
-0.16106051 0.20094484 0.10976793 -0.07423107 0.18520929 -0.11321202 0.15885086 0.0010725356
0.069752544 0.21096177 0.08350585 -0.26602173 -3.9426795e-25 -0.14277449 0.020379076 -0.3452744
0.110725224 0.09770839 0.09670861 0.21256681 -0.4047623 0.1916999 0.039919656 0.0012634677
-0.23769632 0.27660197 0.17665833 0.0004070629 -0.17999585 0.058646012 0.26797974 -0.09516311
1.9089996e-24 0.19114284 -0.17415096 0.054035187 -0.2524599 0.09747821 -0.18387942 -0.30028942
0.0439268 0.14458461 0.11197402 -0.3768812 0.18624438 0.05372085 0.023709403 -0.0006785559
-0.106468685 -0.06636349 0.27997416 -0.050968576 2.071203e-25 -0.10171083 -0.20421715 -0.13991855
0.1305813 0.07108826 0.19779891 -0.118682966 0.12709686 -0.13464376 -0.037486345 0.19640858
0.1264754 0.15874851 0.39711463 0.00035170667 -0.1606223 0.14307114 -0.12194158 -0.18478145
1.2719116e-24 -0.051096767 0.15077923 -0.11104053 -0.0327912 0.15464154 0.0232697 0.037493307
-0.07640718 0.11519416 0.14635736 -0.14214604 -0.20918326 -0.07789328 0.27482402 6.8489186e-05
0.14201507 0.32293737 0.017665388 -0.060019977 1.1983666e-24 0.16294286 0.08847774 0.292651
0.18118893 0.26382503 0.34241232 0.1562516 -0.13367663 0.06519776 -0.16427107 -0.07633037
0.26047015 0.014161526 -0.21505362 -0.0008204587 -0.17949127 -0.063472636 0.44431916 0.054772243
6.263622e-25 0.30198386 -0.28865036 0.39026555 -0.23748262 0.23304111 0.012974145 0.06974485

encoder_lin.4.bias f4 [20]
00000000: 2af4 8b3d 5351 dfbd dcae 1a3e 08fa 26be
00000010: f4d7 debc 41a5 4bbe ca90 083d 1ba1 e93d
00000020: cd9a a5bd 3e4c 2a3e 2f6a 1bbe 8f6f d2bc
00000030: 16ed 89bd fe84 84bd 498d 023e 5ef9 e13c
00000040: 2ab6 f0bc a202 3d3e 5443 85bd a7ee 07b9
0.0683368 -0.10904183 0.15105766 -0.16306317 -0.027202584 -0.19887258 0.033341207 0.114076816
-0.080861665 0.16630647 -0.15177225 -0.02568796 -0.06734674 -0.06470679 0.12749209 0.027584728
-0.029383738 0.18458036 -0.065069824 -0.00012963508
