pretrained_model/model.pth (torch, 89871 bytes, 8 tensors)

conv1.weight f4 [10, 1, 5, 5]
0	0xbdb2c993	-0.087298535
1	0xbeadc526	-0.33939475
2	0xbed0fabb	-0.40816292
3	0xbe9c176d	-0.30486622
4	0xbed94080	-0.42432022
5	0x3e01ea6e	0.12687084
6	0xbd9e6ba0	-0.077353716
7	0xbe0a31bf	-0.13495539
8	0xbe6df1a4	-0.2323671
9	0xbe9ea78b	-0.309872
10	0x3e8ad2b7	0.27113888
11	0x3eb949e2	0.3618918
12	0x3ec70531	0.38871148
13	0x3e394a1b	0.18094675
14	0x3b530b31	0.0032202716
15	0x3dc82d10	0.0977422
16	0x3eb1a976	0.346996
17	0x3eb09994	0.3449217
18	0x3f173810	0.5906992
19	0x3ead5600	0.33854675
20	0xbe585c9e	-0.2112908
21	0xbe8b5d3f	-0.2721958
22	0xbe5bd16d	-0.21466608
23	0xbd91a0a5	-0.07110719
24	0x3d0bc398	0.03412208
25	0x3ec0a3c9	0.37624958
26	0x3e82b33d	0.25527373
27	0xbe8270fa	-0.2547682
28	0xbf36ea26	-0.7145103
29	0xbe838977	-0.25690815
30	0x3ef1d7b2	0.47234875
31	0x3f22daa5	0.63614875
32	0xbddd1717	-0.1079542
33	0xbf30e8b8	-0.691051
34	0xbf1ac471	-0.60455996
35	0x3e376261	0.17908622
36	0x3f2e37d6	0.6805395
37	0xbe2f3223	-0.1710897
38	0xbed81da2	-0.42210108
39	0xbf1556ac	-0.58335376
40	0x3eaaf2d3	0.33388385
41	0x3e835b16	0.2565543
42	0x3e9b6511	0.30350545
43	0xbe36e438	-0.17860496
44	0xbeeadfb0	-0.45873785
45	0x3dcb317e	0.09921549
46	0x3e193b46	0.14964017
47	0x3ede41be	0.43409532
48	0x3dcf7a07	0.10130697
49	0xbe01dc80	-0.1268177
50	0xbeff803c	-0.49902523
51	0xbec95166	-0.39319915
52	0xbd02aa7d	-0.03190087
53	0x3da89c76	0.082329676
54	0x3e8ff26b	0.28114638
55	0xbe195aeb	-0.14976089
56	0xbe0a2fb3	-0.13494758
57	0x3e4a7bbc	0.19773763
58	0x3f076d7c	0.52901435
59	0x3e2f451e	0.1711621
60	0xbe7a4988	-0.24442112
61	0x3e3a052f	0.1816604
62	0x3f30ef7f	0.6911544
63	0x3ee2573c	0.4420718
64	0xbea1a842	-0.31573683
65	0x3c89234f	0.01674047
66	0x3e679c21	0.22618152
67	0x3ee0e887	0.43927404
68	0xbe323f08	-0.17406857
69	0xbf04fb66	-0.51946104
70	0x3e3a16a6	0.18172702
71	0x3da54bd7	0.08071106
72	0xbc9be0c4	-0.019028075
73	0xbed44451	-0.4145837
74	0xbef20781	-0.4727135
75	0x3eae9297	0.34096214
76	0x3f14369a	0.57895815
77	0x3efad3bb	0.48989663
78	0x3d89ca61	0.06728054
79	0x3e385e79	0.18004788
80	0xbe503bab	-0.20335262
81	0x3dc2ebcf	0.09517633
82	0x3ea179e3	0.31538305
83	0x3e9e8c66	0.3096649
84	0x3edfc679	0.4370611
85	0xbe9a3f4a	-0.3012641
86	0xbe770562	-0.24123147
87	0x3d8dcae4	0.06923464
88	0x3c47e17b	0.012199755
89	0x3dee8e17	0.11648195
90	0xbde4e694	-0.11176792
91	0xbec53010	-0.3851323
92	0xbeadae4c	-0.3392204
93	0xbe9c4322	-0.30519968
94	0xbecca109	-0.3996661
95	0xbe259750	-0.16171002
96	0xbe515f13	-0.20446424
97	0xbebcaab6	-0.36848992
98	0xbeb8e36d	-0.36111012
99	0xbe935935	-0.28778997
100	0x3f03427a	0.5127331
101	0x3ddcbb79	0.10777945
102	0xbc23b434	-0.009991694
103	0xbc59fc21	-0.013304741
104	0xbddbcc4f	-0.10732328
105	0x3dd0514a	0.10171755
106	0x3ec84f87	0.39123175
107	0x3db71953	0.08940377
108	0x3e0b716c	0.13617486
109	0x3dfdfa50	0.12401259
110	0x3d4b876a	0.049689688
111	0x3f0ec21a	0.55764925
112	0x3f07032f	0.5273923
113	0x3d0d7ac8	0.03454092
114	0x3e123cbc	0.14280981
115	0x3dc586cc	0.09644851
116	0x3e7e204d	0.2481701
117	0x3e3e0029	0.18554749
118	0x3e53413b	0.20630352
119	0x3e191155	0.14948018
120	0xbdb1077f	-0.08644008
121	0xbc9f26d5	-0.019427696
122	0x3e33e852	0.17569092
123	0x3de3d969	0.11125452
124	0xbc3ba7c7	-0.011453575
125	0xbe04b3b8	-0.12959182
126	0xbe27c91e	-0.16385314
127	0xbde754cf	-0.11295473
128	0x3e87aedb	0.26500592
129	0x3ef2c40e	0.47415203
130	0xbd7dee86	-0.06199505
131	0x3de9abac	0.11409697
132	0x3e2388c3	0.15970139
133	0x3eddd6a5	0.43327823
134	0x3eaf9ad3	0.3429781
135	0x3d32d73c	0.043662295
136	0x3e4702c5	0.1943465
137	0x3e418455	0.18898137
138	0x3d7f1dd8	0.06228432
139	0xbe205f1b	-0.1566128
140	0xbd9e13c9	-0.077186175
141	0x3cfa4425	0.030550072
142	0xbd400fc3	-0.04689003
143	0x3e910fdc	0.28332412
144	0x3e4fcf5c	0.20293945
145	0xbc254dd1	-0.010089354
146	0x3dbbf3da	0.0917737
147	0x3ded98eb	0.116014324
148	0x3e3ac208	0.1823808
149	0x3e080a17	0.13285099
150	0xbebcf924	-0.3690883
151	0xbd81c86c	-0.063370556
152	0xbdf2a715	-0.118482746
153	0xbb1b645e	-0.0023710947
154	0xbe307152	-0.17230728
155	0xbece6a48	-0.4031546
156	0xbeadd3b8	-0.3395059
157	0xbe52f44b	-0.20601003
158	0x3e158e93	0.14605169
159	0xbd18663b	-0.03720687
160	0xbecf6534	-0.405069
161	0xbe0a8502	-0.13527301
162	0x3cb8031a	0.022462416
163	0x3e7d05d4	0.24709255
164	0x3bb807c4	0.00561616
165	0xbe609d9b	-0.21935122
166	0xbe5a2d21	-0.21306278
167	0xbd07f927	-0.033196595
168	0x3c0683b6	0.008210113
169	0x3e690630	0.22756267
170	0xbe2ce981	-0.1688595
171	0x3d818d97	0.06325834
172	0x3e3e8fe8	0.18609583
173	0x3ecc1911	0.39862874
174	0x3f2aaf8e	0.66674125
175	0x3ec7a6e3	0.38994512
176	0x3ea98a2a	0.33113223
177	0x3d897339	0.0671143
178	0xbe6d9b76	-0.23203835
179	0xbdc8d595	-0.098063625
180	0xbdd0bb96	-0.10192029
181	0xbe27df5f	-0.16393803
182	0xbee93f87	-0.4555628
183	0xbec2e0f4	-0.3806225
184	0xbeda89af	-0.4268317
185	0xbdb05948	-0.08610779
186	0xbef4fc8b	-0.47848925
187	0xbedca716	-0.43096226
188	0xbe3e5d3b	-0.18590252
189	0xbe1064ab	-0.14100902
190	0xbd39c07a	-0.045349576
191	0xbdc5caee	-0.096578464
192	0x3d6d14e9	0.05788127
193	0x3e635ef9	0.22204198
194	0x3ee98b21	0.4561396
195	0xbc470dfe	-0.012149332
196	0x3ebed95b	0.37275204
197	0x3f067e88	0.5253682
198	0x3f0a54c0	0.5403557
199	0x3e778fb0	0.24175906
200	0x3d01c0d9	0.031678054
201	0xb99dfc5c	-0.00030133396
202	0x3e68ddb0	0.22740817
203	0xbdd092c9	-0.10184247
204	0xbe3f560d	-0.1868517
205	0x3d2a43bf	0.041568514
206	0x3db6bbe1	0.08922554
207	0x3e7f2598	0.24916685
208	0x3edff539	0.43741778
209	0x3ea11253	0.31459293
210	0xbe0c2607	-0.13686381
211	0xbd85ecf5	-0.065393366
212	0xbe74a8b2	-0.23892477
213	0x3ef9bac1	0.48775294
214	0x3f35b5cd	0.7098053
215	0xbdfb4130	-0.12268293
216	0xbdd14f88	-0.102202475
217	0xbeb9631b	-0.36208424
218	0xbe21e832	-0.15811232
219	0x3efde76a	0.49590617
220	0xbee0defa	-0.43920118
221	0xbe6ad35e	-0.22932193
222	0xbf03e856	-0.5152639
223	0xbef68abc	-0.4815272
224	0x3c9c7ec4	0.019103415
225	0xbe1ab6a0	-0.15108728
226	0x3cbea0b5	0.02326999
227	0x3e8a7a17	0.27046272
228	0x3ed20e6b	0.41026625
229	0x3ef47af0	0.47750044
230	0xbd223383	-0.039599907
231	0xbda99d3f	-0.082819454
232	0x3ed0e351	0.4079843
233	0x3e7adea5	0.24498995
234	0x3e836eca	0.25670463
235	0x3d320dd5	0.043470223
236	0xbdaf23f2	-0.08551778
237	0x3df3b1bc	0.118991345
238	0x3e0529d3	0.13004236
239	0xbdb624b4	-0.08893719
240	0xbe7f5b24	-0.24937111
241	0xbe448cf1	-0.1919439
242	0xbe6fe85c	-0.23428482
243	0xbe764d7f	-0.24053
244	0xbe7f5f24	-0.24938637
245	0xbea5ef24	-0.32409012
246	0xbf267234	-0.6501801
247	0xbf1501b8	-0.5820575
248	0xbed4fa45	-0.4159719
249	0xbd926d49	-0.07149751

conv1.bias f4 [10]
0	0x3c880729	0.016604977
1	0xbd803463	-0.06259992
2	0xbea3cac9	-0.3199065
3	0x3c870ae0	0.016484678
4	0xba930aeb	-0.0011218464
5	0xbc1ac6f4	-0.009446848
6	0x3d3eef4a	0.046614923
7	0xbba350db	-0.004984004
8	0xbddfd213	-0.1092874
9	0xbb99397a	-0.004676041

conv2.weight f4 [20, 10, 5, 5]
0	0xba55011e	-0.00081254716
1	0x3d98899f	0.07448124
2	0xbde71b32	-0.11284484
3	0xbd5aaa04	-0.053384796
4	0x3d30cf0c	0.043166205
5	0xbd508009	-0.050903354
6	0x3cdf72b7	0.02727638
7	0xbdf34fd7	-0.118804626
8	0x3ca37dcf	0.019957451
9	0x3cbe4040	0.023223996
10	0xbd7b9d4c	-0.061429307
11	0xbd08ef0a	-0.03343109
12	0xbd9034df	-0.07041334
13	0xbcad07dc	-0.021121912
14	0x3c468632	0.012116956
15	0xbe1cf1bf	-0.15326594
16	0xbdc942b8	-0.09827179
17	0xbcbd3d96	-0.023100656
18	0xbc88f96b	-0.016720494
19	0x3db2c3d4	0.087287575
20	0xbce067fb	-0.027393332
21	0x3d097b48	0.033564836
22	0x3d8b3557	0.06797283
23	0x3c07b7d1	0.008283571
24	0xbdab8df3	-0.08376684
25	0xbca971ee	-0.020684209
26	0xbe26e186	-0.16296968
27	0xbe549f8c	-0.20763987
28	0xbe08c0b7	-0.13354765
29	0xbd0addb1	-0.033902828
30	0xbe0d9133	-0.1382492
31	0xbeb535dd	-0.35392657
32	0xbe362305	-0.17786796
33	0xbd7239df	-0.05913722
34	0xbdb98b81	-0.090598114
35	0xbe8893c3	-0.26675233
36	0xbe496b32	-0.19669798
37	0xbd61eda7	-0.055158284
38	0xbaa01bf2	-0.001221536
39	0xbb89c47c	-0.004204331
40	0xbe0b16bf	-0.13582896
41	0x3ccb8f86	0.02484871
42	0x3ddccaee	0.10780893
43	0x3ddd4d54	0.10805765
44	0x3de03fe8	0.10949689
45	0x3d89f63b	0.06736418
46	0x3dcd2f4e	0.10018788
47	0x3dc226d0	0.09480059
48	0xbdbb7353	-0.09152856
49	0xbcf3c481	-0.029756786
50	0x3e23e3d6	0.16004881
51	0xbdc36eca	-0.09542616
52	0xbd13f343	-0.036120664
53	0xbc9520d6	-0.018204134
54	0x3dcfea3a	0.10152097
55	0xbc5f72e5	-0.013638233
56	0x3d897f4f	0.06713735
57	0x3d863577	0.06553166
58	0x3ddd2ddf	0.10799765
59	0x3dec352e	0.11533581
60	0xbb018467	-0.0019762756
61	0x3dd35567	0.103190236
62	0x3dd94506	0.10608868
63	0x3c8e3db6	0.01736341
64	0x3c03a742	0.008035483
65	0xbbfc9b48	-0.0077089407
66	0x3b4f3a6b	0.0031620513
67	0xba67fe97	-0.00088498875
68	0xbd9bfcbc	-0.07616565
69	0xbdccf7f5	-0.100082316
70	0x3c09dbd4	0.0084142275
71	0xbded4655	-0.115856804
72	0xbda5daed	-0.080983974
73	0xbd8b2b61	-0.06795383
74	0xbd003af0	-0.031306207
75	0x3d9de907	0.07710462
76	0xbcae7a49	-0.021298544
77	0xbd3cca8e	-0.04609161
78	0xbcb73d25	-0.022368023
79	0x3bd8f2ce	0.0066207414
80	0x3c4d8c24	0.012545619
81	0xbd05b16f	-0.032639917
82	0xbcc1a6bb	-0.023639074
83	0x39653dcb	0.00021862162
84	0xbce37734	-0.027766801
85	0x3d2c95a4	0.042134896
86	0xbcfb241e	-0.03065687
87	0xbd8818d7	-0.06645363
88	0xbe1bc302	-0.15211108
89	0xbd905331	-0.070471175
90	0x3d781cde	0.060574405
91	0x3d173ebd	0.036925066
92	0xbd590b49	-0.052989278
93	0xbd97c061	-0.0740974
94	0x3c2d3b58	0.010573231
95	0x3d616553	0.05502827
96	0x3e1504de	0.14552638
97	0x3e05d133	0.13068084
98	0x3de23db9	0.11046929
99	0x3b1a1235	0.0023509387
100	0x3e0bd591	0.13655688
101	0xbd74fca4	-0.05981125
102	0x3c5b6f8d	0.013393295
103	0x3d49863d	0.049200285
104	0x3e2a744a	0.16645923
105	0xbd28e2e7	-0.041232016
106	0xbe2a411e	-0.16626403
107	0xbd9a9119	-0.075472064
108	0x3e38d60e	0.18050405
109	0x3d80ee8f	0.062955014
110	0xbe982e42	-0.29722792
111	0x3cfa2810	0.030536681
112	0x3c6f53de	0.014607398
113	0x3d8992f1	0.0671748
114	0xbd0267f6	-0.031837426
115	0xbe9421b1	-0.28931955
116	0xbc93e31e	-0.018052634
117	0x3d9fe0b7	0.07806533
118	0x3cd0d6bb	0.025493016
119	0xbd7fa83c	-0.0624163
120	0xbd9f7436	-0.07785837
121	0xbcfe0a70	-0.031010836
122	0xbcc427ff	-0.023944853
123	0xbe1214f6	-0.14265808
124	0xbe22db1d	-0.15903898
125	0x3d6e5c72	0.05819363
126	0xbd9e8979	-0.077410646
127	0x3d5b84ff	0.05359363
128	0x3df785c1	0.120860584
129	0x3b066711	0.002050821
130	0xbd5a33f2	-0.053272195
131	0x3d8be55d	0.06830857
132	0x3de8c0f9	0.113649316
133	0x3dd032f9	0.10165972
134	0x3d86fa65	0.06590728
135	0x3c4aa6ac	0.012368839
136	0x3e17b63d	0.14815612
137	0x3e4edd58	0.20201623
138	0x3db95fa7	0.09051447
139	0xbd91e974	-0.07124606
140	0xbd4f007a	-0.050537564
141	0x3d5fa66b	0.054602068
142	0x3ce216af	0.027598707
143	0xbd3abf82	-0.045592792
144	0xbe1d1e29	-0.15343536
145	0xbd27ef73	-0.04099984
146	0xbd842ad4	-0.06453481
147	0xbe2e3abd	-0.17014594
148	0xbd677cb3	-0.056515407
149	0xbdc9569b	-0.09830972
150	0x3c9d0e01	0.019171717
151	0xbcbeafd4	-0.0232772
152	0x3ca61a25	0.020276139
153	0x3c8ba2c0	0.017045379
154	0x3ddc91b7	0.107699804
155	0x3d901018	0.0703432
156	0xbd81a848	-0.06330925
157	0x3d8526e8	0.065015614
158	0x3d8c9284	0.06863883
159	0xbc37d302	-0.011219742
160	0x3c6273d1	0.013821558
161	0x3d314192	0.043275423
162	0x3d87334a	0.066015795
163	0x3e10c00f	0.14135765
164	0xbcbb0b8e	-0.022832658
165	0x3dbad18a	0.09121998
166	0xbcf5d755	-0.030009905
167	0xbc2b9b47	-0.010474033
168	0x3c39ecc1	0.01134795
169	0xbdde9edc	-0.10870144
170	0x3d5627f1	0.052284185
171	0x3cf17ccc	0.029478453
172	0xbc526985	-0.012842541
173	0xbd13ccd9	-0.03608403
174	0xbd8ac8b5	-0.06776563
175	0xbcd8b592	-0.026453767
176	0x3e357d04	0.17723471
177	0xbbbada66	-0.0057023047
178	0xbcbbceb8	-0.02292572
179	0x3e15c2db	0.14625113
180	0x3cb9cd51	0.02268091
181	0x3e22ac35	0.15886004
182	0xbd9d7d72	-0.076899424
183	0x3d873994	0.06602779
184	0x3d9b8d38	0.07595295
185	0x3cf66e90	0.030082017
186	0xbcf37593	-0.02971915
187	0xba819b84	-0.0009888266
188	0xbdbe3d45	-0.0928903
189	0xbd58caaf	-0.05292767
190	0xbd310b8c	-0.043223903
191	0xbd76fe4c	-0.06030111
192	0x3c57b8a9	0.013166585
193	0x3b580222	0.0032960256
194	0x3cc1eba7	0.023671938
195	0x3d6f3589	0.058400664
196	0xbbaaea68	-0.0052159317
197	0x3cc4db70	0.024030417
198	0x3da1d7fa	0.079025224
199	0xbcce7c47	-0.025205744
200	0xbd9252f5	-0.07144729
201	0xbd90fd6e	-0.07079588
202	0x3bf80d1f	0.0075699235
203	0x3bb0b7e6	0.005393016
204	0xbd27441e	-0.040836446
205	0xbd117ca0	-0.035519242
206	0xbdb0e5c8	-0.08637577
207	0xbda1d277	-0.07901471
208	0xbda6589e	-0.08122371
209	0xbd375445	-0.0447581
210	0x3d01bc47	0.031673696
211	0xbd6a3c6d	-0.057186533
212	0x3d289b42	0.04116369
213	0x3dd82036	0.10553019
214	0x3d1f1e8e	0.0388475
215	0x3d95ec66	0.0732048
216	0xbc70d6fb	-0.014699693
217	0x3d15cb3b	0.03657077
218	0x3e028bc6	0.12748632
219	0x3b105dde	0.0022028605
220	0xba876ae3	-0.0010331537
221	0xbc1f5539	-0.0097249085
222	0x3c9ddcb4	0.019270279
223	0x3d7f5d13	0.062344622
224	0xbc724580	-0.014787078
225	0x3db2c18f	0.087283246
226	0xbd89d559	-0.06730146
227	0x3d8b479e	0.06800769
228	0xbc4e539b	-0.012593175
229	0xbd7c99b2	-0.061670013
230	0x3d8f96e9	0.07011206
231	0xbd38dece	-0.045134358
232	0x3d2665e5	0.040624518
233	0xbe2de4d4	-0.16981822
234	0xbd97efa3	-0.07418754
235	0x3da96e5d	0.08273003
236	0x3d381f5b	0.044951778
237	0xbd74c786	-0.059760593
238	0xbdb5ce29	-0.088772126
239	0xbd0a6bac	-0.03379409
240	0x3cd3e883	0.025867706
241	0xbb6b3e8b	-0.0035895433
242	0xbd3ac0f0	-0.045594156
243	0x3cd80e17	0.026373906
244	0x3c2ed21f	0.010670214
245	0xbcd44f72	-0.025916789
246	0x3c4209a3	0.011843118
247	0x3c4af0e2	0.0123865325
248	0x3e1362d4	0.14393169
249	0xbcfe2aad	-0.031026209
250	0xbdf11f63	-0.11773565
251	0xbce6d332	-0.028176878
252	0xbdc7c84e	-0.09755002
253	0xbd24ff74	-0.04028268
254	0x3b9694d9	0.0045953807
255	0xbcba9534	-0.022776224

conv2.bias f4 [20]
0	0x3c3c3908	0.011488207
1	0xbd9f99a1	-0.07792974
2	0x3d4cff08	0.050047904
3	0x3db5dfe6	0.08880596
4	0xbd4e3709	-0.050345454
5	0xbd647768	-0.055777937
6	0xbd33115e	-0.043717735
7	0xbb054192	-0.0020333272
8	0xbcef350e	-0.029200103
9	0xbcc0ec16	-0.023550075
10	0x3e2168f6	0.15762696
11	0xbd3d0f8a	-0.046157397
12	0x3d8b06d7	0.06788414
13	0x3d75def0	0.060027063
14	0xbe041e50	-0.12902188
15	0xbda7aca9	-0.08187229
16	0xbe2795a4	-0.16365677
17	0xbda08799	-0.07838363
18	0x3c1d6010	0.009605423
19	0x3e3e4368	0.18580401

fc1.weight f4 [50, 320]
0	0xbe264ed1	-0.16241004
1	0xbd033f64	-0.032042876
2	0x3c4a91d6	0.012363872
3	0xbc2b4ef4	-0.010455836
4	0x3d778dcd	0.060437966
5	0xbd06cb95	-0.032908995
6	0xbc2b30b5	-0.010448624
7	0xbcbc7078	-0.023002848
8	0xbc61a158	-0.0137713775
9	0x3c9e1b6a	0.019300181
10	0x3dd6b85b	0.10484382
11	0x3db2d0b3	0.087312125
12	0x3c1e0846	0.009645527
13	0xbdebc18f	-0.11511528
14	0xbd01f8dc	-0.03173147
15	0x3dc75449	0.09732873
16	0xbdb4c38b	-0.08826359
17	0xbd35ddc6	-0.044400953
18	0xbd632dd0	-0.055463612
19	0xbd08e869	-0.03342477
20	0x3ce1ff1a	0.027587462
21	0xbcc2a1c4	-0.023758776
22	0x3cdb57a5	0.02677519
23	0xbc922dda	-0.01784413
24	0x3d01d38a	0.03169588
25	0xbe0d0e37	-0.13774954
26	0x3cfc2903	0.030781275
27	0x3d5fe4e4	0.054661646
28	0x3c909f43	0.017654067
29	0xbd7adee8	-0.061247736
30	0xbc772ddd	-0.015086618
31	0x3d650e18	0.055921644
32	0xbb0bb1f8	-0.0021315794
33	0x396acdee	0.00022392694
34	0x3c074ad6	0.008257588
35	0xbccab7b2	-0.024745796
36	0xbd868e05	-0.06570057
37	0x3d42b1c9	0.04753283
38	0x3dc934b3	0.09824505
39	0x3d0ca875	0.03434034
40	0xbc9794b5	-0.018503526
41	0xbd07a7fb	-0.033119183
42	0xbd686b4a	-0.056742944
43	0xbdc08271	-0.0939988
44	0x3b08ae2b	0.0020855765
45	0xbd93b922	-0.07213046
46	0x3d892da0	0.066981554
47	0xbcb64b84	-0.022252806
48	0x3c98b16e	0.018639293
49	0x3d3645fa	0.04450033
50	0xbd3514fd	-0.04420947
51	0xbcf1ae17	-0.029501958
52	0x3e1f3b6d	0.15550013
53	0x3d554a39	0.052072737
54	0x3d4334cd	0.047657777
55	0xbc362361	-0.011116833
56	0x3d5d7751	0.054068867
57	0x3d21f7e1	0.039543036
58	0xbe052a99	-0.13004531
59	0xbda8e784	-0.08247283
60	0x3d985377	0.07437795
61	0x3c209f20	0.009803563
62	0x3aadc936	0.0013258818
63	0xbd27f8c2	-0.04100872
64	0x3d574077	0.052551713
65	0x3d559755	0.052146275
66	0x3c8f81f7	0.017518027
67	0xbd3a5878	-0.045494527
68	0xbcd87d04	-0.0264268
69	0xbd950913	-0.072771214
70	0xbcc696b9	-0.024241792
71	0x3cb2cfad	0.021827543
72	0x3c4a6f55	0.012355645
73	0xbcd4a11e	-0.025955733
74	0x3c2f28f0	0.010690913
75	0x3d714dfe	0.05891227
76	0xbc502d37	-0.012706093
77	0x3d4d2448	0.05008343
78	0x3ca58ddf	0.020209251
79	0x3d583147	0.05278137
80	0xbd8eac13	-0.06966414
81	0x3b243a83	0.002505929
82	0xbc0025a5	-0.007821475
83	0x3aa1014c	0.0012283712
84	0x3d4aedce	0.049543194
85	0xbbfe5a8c	-0.007762259
86	0xbc06a26b	-0.008217434
87	0xbcdb3294	-0.026757516
88	0x3da4ad5d	0.08040879
89	0x3c4a5b0e	0.012350811
90	0x3bc81a3f	0.0061066444
91	0x3cc338df	0.02383083
92	0x3c24dec1	0.010062874
93	0x38ab3cb1	8.16522e-05
94	0xbb8bc51b	-0.00426544
95	0x3d8f4eed	0.06997476
96	0xbd0037b7	-0.031303134
97	0x3d66a9e0	0.05631435
98	0x3b64c04c	0.0034904657
99	0x3d968e14	0.07351318
100	0x3d250a77	0.040293183
101	0x3c5c3707	0.013440854
102	0xbdf05994	-0.11735836
103	0xbcd394e8	-0.02582784
104	0x3bd25b79	0.006419596
105	0xbd005273	-0.03132863
106	0xbcb0dd5d	-0.02158993
107	0xbe06187f	-0.13095282
108	0x3aaad342	0.001303293
109	0x3d721134	0.059098437
110	0xbca65dfb	-0.020308485
111	0xbd6f2d35	-0.058392722
112	0x3d221ad4	0.039576367
113	0xbd4df87a	-0.050285794
114	0x3dcba708	0.09943968
115	0x3d4f975f	0.050681468
116	0x3c8ef407	0.017450346
117	0x3d11b1a7	0.035569813
118	0x3c9be311	0.019029172
119	0x3d2b7c96	0.04186686
120	0xbd886375	-0.06659595
121	0xbd924661	-0.0714233
122	0xbd262244	-0.040560022
123	0x3ddfba15	0.10924164
124	0x3d0c1b12	0.034205504
125	0xbdc12cb0	-0.094323516
126	0xbd1d649d	-0.03842603
127	0x3c6105da	0.013734305
128	0x3b4da3ea	0.0031378218
129	0x3d1b8d43	0.037976515
130	0x3c5577b9	0.013029032
131	0xbd8de330	-0.06928098
132	0x3c9d4b1e	0.019200858
133	0xbcd64882	-0.026157621
134	0x3e027610	0.1274035
135	0x3d8bbc13	0.06822982
136	0x3c45ae1e	0.012065439
137	0xbe053189	-0.13007177
138	0xbd8cb182	-0.068697944
139	0xbcb69e5b	-0.022292307
140	0xbd17319c	-0.036912546
141	0xbd0527d7	-0.032508697
142	0x3d8685fa	0.06568523
143	0xbca808b3	-0.02051196
144	0xbdb798aa	-0.08964665
145	0xbd25a2a3	-0.040438306
146	0x3d588f55	0.052871067
147	0x3d67a43f	0.05655312
148	0xbd1c6428	-0.038181454
149	0x3d31bc14	0.043392256
150	0xbd43901f	-0.047744866
151	0xbcbeb693	-0.023280418
152	0x3d0361e7	0.03207579
153	0xbab3dd2c	-0.001372253
154	0xbbc88c62	-0.0061202506
155	0x3ce1447a	0.027498472
156	0x3da91bc7	0.08257251
157	0x3cf7664d	0.030200148
158	0x3cedcc8d	0.029028201
159	0x3dbd5904	0.09245494
160	0xbc462a82	-0.012095096
161	0xbd640c2c	-0.05567567
162	0xbda57b7b	-0.08080193
163	0xbd9b8a4c	-0.075947374
164	0x3c3dac2f	0.011576696
165	0xbd85be7f	-0.06530475
166	0x3d257909	0.04039863
167	0x3ca7206e	0.020401206
168	0xbbfbb470	-0.007681422
169	0x3d7e257e	0.062047474
170	0x3d8abf61	0.06774784
171	0x3d0a5a1e	0.03377735
172	0x3d9527c9	0.07282979
173	0x3d3acfc4	0.045608297
174	0x3c8dbd94	0.017302312
175	0xbc79c530	-0.015244767
176	0xbd9527a8	-0.072829545
177	0xbda9da99	-0.08293647
178	0xbc21e6eb	-0.009881715
179	0x3c1bba7a	0.009504909
180	0xbdbb5eba	-0.09148927
181	0xbc14e453	-0.00908764
182	0xbd0e7327	-0.034777787
183	0xbc66bdd6	-0.014083346
184	0x3c56c43e	0.013108311
185	0xbca743b7	-0.020418031
186	0x3d8d3dd5	0.06896559
187	0x3c2b42b9	0.01045292
188	0x3d1a5a7c	0.03768395
189	0x3cbbfc72	0.022947524
190	0xbc99181a	-0.01868825
191	0x3db1bc20	0.0867846
192	0x3d98111e	0.0742514
193	0x3dabab93	0.083823346
194	0x3c42a985	0.011881237
195	0x3c647d96	0.013945958
196	0x3cebf7df	0.028804718
197	0xbd16d759	-0.036826465
198	0x3c9434c8	0.018091574
199	0x3daca013	0.08428969
200	0x3c249bba	0.010046894
201	0xbe37df2e	-0.1795623
202	0x3daa4aaa	0.08315022
203	0x3da79bd4	0.08184019
204	0xbd9ed6b3	-0.077557944
205	0xbd65fe37	-0.05615064
206	0x3dbe2eca	0.09286268
207	0xbd3ce76a	-0.04611913
208	0x3cdc3550	0.02688089
209	0x3c894ba4	0.016759701
210	0x3d54fee1	0.052000884
211	0x3bdef278	0.006803807
212	0x3da8c1c9	0.082400866
213	0xbcc8893c	-0.024479501
214	0xbda94bc8	-0.08266407
215	0xbdaf6730	-0.08564603
216	0xbdfe3721	-0.12412859
217	0xbd3b95f2	-0.045797296
218	0xbc2532c6	-0.010082906
219	0xbd92e9f7	-0.071735315
220	0xbe2d3529	-0.1691481
221	0xbd90ae14	-0.07064453
222	0x3d0d5825	0.03450789
223	0xbd1415a9	-0.03615347
224	0x3e13992e	0.14413902
225	0x3dbad80d	0.0912324
226	0x3c2af98a	0.010435471
227	0x3d4e827a	0.0504174
228	0xbd304c0a	-0.043041267
229	0xbdb24e3e	-0.0870633
230	0xbdae52f0	-0.08511913
231	0xbd31a9c3	-0.043374788
232	0xbcd91c22	-0.026502673
233	0x3bc004af	0.0058599333
234	0xbdf0703b	-0.11740156
235	0xbd2fc666	-0.042913817
236	0x3bde871d	0.006791009
237	0xbd19c78e	-0.037543826
238	0xbdcf08f9	-0.10109133
239	0xbc985f6c	-0.018600188
240	0x3de474b6	0.11155073
241	0x3cd96738	0.026538476
242	0xbce6b195	-0.02816085
243	0x3be32abb	0.006932584
244	0xbd34ce72	-0.044142194
245	0xbdec4b57	-0.115378074
246	0x3d0e2e3d	0.034712065
247	0x3dfd2ed0	0.123624444
248	0x3bf253ab	0.007395228
249	0x3d60cb38	0.054881305
250	0x3e074793	0.13210897
251	0x3d3abbe2	0.045589335
252	0xbcc0e7a8	-0.023547962
253	0xbdc9e692	-0.09858431
254	0xbdc540d9	-0.09631509
255	0xbe3540f4	-0.17700559

fc1.bias f4 [50]
0	0x3e0ca877	0.13736139
1	0x3e1943c6	0.1496726
2	0x3dcff60e	0.10154353
3	0x3dae1155	0.084993996
4	0x3d06f310	0.032946646
5	0x3dbd53f2	0.09244527
6	0x3d8fa664	0.07014158
7	0x3e033b6d	0.12815638
8	0x3dc0dfe6	0.09417705
9	0x3d2e058d	0.042485762
10	0x3e156b31	0.14591672
11	0x3e1a5dba	0.15074816
12	0x3d5d462e	0.054022007
13	0x3dbfc5ff	0.09363937
14	0x3deb5535	0.11490861
15	0x3d2a4510	0.04156977
16	0x3e690f55	0.22759755
17	0x3e10b6b3	0.14132194
18	0x3e00fa7c	0.12595552
19	0x3d8a6953	0.0675837
20	0x3d92f859	0.07176275
21	0x3db0aba0	0.08626485
22	0x3d399947	0.045312192
23	0x3e3d5dc8	0.18492806
24	0x3e40e432	0.1883705
25	0x3dbee961	0.09321857
26	0x3dce6c26	0.100792214
27	0x3dbbf55f	0.0917766
28	0x3d8cdbc1	0.06877852
29	0x3d2154dc	0.03938757
30	0x3e013d9e	0.12621161
31	0x3d1dac5a	0.038494445
32	0x3de31d12	0.11089529
33	0x3c1c3a43	0.009535375
34	0x3d57139b	0.05250893
35	0x3e35e2f3	0.17762356
36	0x3d267a03	0.040643703
37	0x3c9b333d	0.01894533
38	0x3e1c9c44	0.15293986
39	0x3e1dba4e	0.15403101
40	0x3dcc00ae	0.09961067
41	0x3e64bc43	0.22337441
42	0x3dca9294	0.09891239
43	0x3d8caca0	0.06868863
44	0x3d93caf7	0.07216447
45	0x3df06c36	0.117393896
46	0x3c041e3f	0.008063852
47	0x3c967f74	0.018371321
48	0x3dddbca5	0.10826997
49	0x3e318fbb	0.17339985

fc2.weight f4 [10, 50]
0	0x3ebd5c46	0.36984462
1	0xbe39fe1c	-0.18163341
2	0x3e5817cf	0.21102832
3	0x3e61fb15	0.22068436
4	0xbea6f15a	-0.32606012
5	0xbdbc6ddd	-0.09200642
6	0xbe950cec	-0.2911142
7	0xbe154639	-0.14577569
8	0xbe3ac83a	-0.18240443
9	0xbea1e7f5	-0.31622282
10	0xbeb71b16	-0.35762852
11	0xbe6d1586	-0.23152742
12	0xbe5b0f2c	-0.21392506
13	0x3e9f4678	0.3110845
14	0x3eaca4da	0.33719522
15	0x3e779ee2	0.24181703
16	0xbe30ce6f	-0.17266248
17	0x3e77e4f0	0.24208426
18	0x3df03c84	0.117302924
19	0xbeb37d30	-0.35056448
20	0xbe1fe532	-0.15614775
21	0xbe53e6e5	-0.20693548
22	0xbe5ec6ce	-0.21755525
23	0xbead6e6d	-0.3387331
24	0xbd8f9f21	-0.07012773
25	0xbe9f78c1	-0.31146815
26	0xbea5712e	-0.32312912
27	0xbe9e6928	-0.30939603
28	0x3e9fdefe	0.31224817
29	0x3f19b57a	0.60042536
30	0xbe8cd9ab	-0.27509817
31	0xbe8583e6	-0.26077193
32	0x3e818045	0.25293174
33	0x3e733caf	0.23753618
34	0xbe5eda90	-0.21763062
35	0x3e9138a2	0.2836352
36	0x3d6a923e	0.057268374
37	0x3e5259ab	0.20542018
38	0xbdda32b4	-0.10654202
39	0xbeaa8076	-0.33301133
40	0xbdd88c39	-0.1057362
41	0xbe81a3d4	-0.25320303
42	0xbe0d17e0	-0.13778639
43	0xbe39d8ef	-0.1814916
44	0xbe36f73f	-0.17867754
45	0x3ec4b197	0.3841674
46	0xbd408ab2	-0.04700727
47	0xbe4b67dd	-0.1986384
48	0x3dd539e1	0.1041143
49	0xbe89d5b0	-0.26920843
50	0xbd33b674	-0.043875173
51	0x3e7d67fe	0.24746701
52	0xbea95661	-0.33073714
53	0x3e056412	0.13026455
54	0x3e1bbf6b	0.15209739
55	0x3e67c66f	0.2263429
56	0xbebef3d8	-0.37295413
57	0x3eb56487	0.3542826
58	0x3c8a169a	0.01685648
59	0xbddec82b	-0.10878023
60	0x3eb12893	0.34601268
61	0x3e7b339f	0.2453141
62	0xbe6ed754	-0.23324329
63	0xbe5d8d18	-0.21635854
64	0xbddb42fb	-0.10706135
65	0xbefe443f	-0.49661443
66	0x3e5313ed	0.2061307
67	0xbe3bcb83	-0.18339352
68	0xbe8f48b6	-0.27985162
69	0x3e12019f	0.14258431
70	0xbecabdf9	-0.39598063
71	0xbcb4872a	-0.022037107
72	0x3e645e04	0.22301489
73	0x3ebcea1e	0.36897367
74	0x3f1fac47	0.6237225
75	0xbe9274eb	-0.28604826
76	0xbeca3466	-0.39493102
77	0x3c1fa4b5	0.009743859
78	0xbdd577bc	-0.10423228
79	0x3bab7539	0.00523248
80	0x3e657582	0.22408107
81	0xbe883c64	-0.26608574
82	0xbe99bb10	-0.3002553
83	0xbea8201c	-0.32836998
84	0x3eeb7829	0.45990112
85	0xbdf99d35	-0.12188188
86	0xbe4e5df1	-0.20153023
87	0xbea3f7a2	-0.32024866
88	0x3e8f4152	0.27979523
89	0x3e649ae6	0.22324714
90	0xbdcf241b	-0.101143084
91	0x3e771801	0.2413025
92	0xbe999895	-0.29999223
93	0xbe6545f9	-0.22389974
94	0x3e87f74e	0.26555866
95	0xbe42281b	-0.18960612
96	0xbe3b58fb	-0.18295662
97	0x3ea75f48	0.3268988
98	0xbef87ccb	-0.4853271
99	0x3e6621cc	0.2247383
100	0xbe07c349	-0.13258089
101	0xbe1a6349	-0.15076937
102	0xbc9d4109	-0.01919605
103	0x3dda8899	0.10670585
104	0xbdcba93b	-0.099443875
105	0x3e73ba48	0.2380153
106	0x3e61fca0	0.22069025
107	0xbe048f52	-0.12945297
108	0x3ecc3adb	0.39888653
109	0x3ea6288f	0.3245282
110	0xbe7b493e	-0.24539658
111	0x3e9d8462	0.30765063
112	0x3db4d19b	0.088290416
113	0x3e91ed0b	0.28501162
114	0x3e8fb928	0.2807095
115	0x3e1fb069	0.15594639
116	0x396184ea	0.00021507186
117	0xbcf84d95	-0.030310431
118	0xbe510777	-0.20413004
119	0xbeb7c0ee	-0.3588938
120	0xbe25fdb7	-0.16210066
121	0x3ea8c1a8	0.32960248
122	0xbdc827b2	-0.09773196
123	0xbdf31c52	-0.11870636
124	0xbe5327d2	-0.20620659
125	0xbd2a3e27	-0.04156318
126	0xbe51fd20	-0.20506716
127	0x3e56a7a6	0.2096239
128	0xbe97b9e0	-0.29634
129	0x3d23852a	0.039921917
130	0xbdf2121a	-0.11819859
131	0xbe3da326	-0.18519267
132	0x3e24f516	0.16109118
133	0xbe838a61	-0.25691512
134	0x3ed8ab88	0.42318368
135	0x3e5aaf27	0.21355878
136	0xbd30b656	-0.04314264
137	0xbda5e293	-0.08099856
138	0x3e334aed	0.1750905
139	0x3e57cbe3	0.2107387
140	0x3e85f93a	0.26166707
141	0x3ea32d7f	0.31870648
142	0xbe1565f8	-0.14589679
143	0xbd00fbeb	-0.031490248
144	0x3e849e49	0.25902012
145	0x3e870c3a	0.26376516
146	0xbd0790b4	-0.033096984
147	0x3dfad795	0.1224815
148	0xbe013f46	-0.12621793
149	0x3e762eea	0.24041334
150	0xbdbea483	-0.09308722
151	0x3ea7ba5e	0.32759374
152	0x3e777d1e	0.24168822
153	0xbe708341	-0.2348757
154	0x3e016862	0.12637475
155	0xbe8222d0	-0.25417185
156	0x3ca4799e	0.020077523
157	0xbe247a86	-0.16062364
158	0xbce96d6a	-0.028494556
159	0x3ea01346	0.31264704
160	0xbe0fa0b7	-0.14026152
161	0x3e954da6	0.29160804
162	0xbe036b03	-0.1283379
163	0xbd39a991	-0.045327727
164	0x3e819f69	0.25316933
165	0xbe4dcf9c	-0.20098728
166	0xbd4300d9	-0.04760823
167	0x3e692d89	0.22771277
168	0xbe41e840	-0.18936253
169	0x3e688504	0.22706991
170	0x3e8610c2	0.2618466
171	0x3eb449ea	0.35212642
172	0x3e65a592	0.22426441
173	0xbe9b676e	-0.30352348
174	0xbe8fc3a8	-0.2807896
175	0xbe29b299	-0.16572036
176	0x3e29e8e4	0.16592747
177	0x3c9d6f85	0.019218216
178	0x3c29f636	0.010373643
179	0xbe3d1374	-0.18464452
180	0xbe8197e8	-0.25311208
181	0x3eac4d6d	0.3365282
182	0xbe19f026	-0.15033016
183	0x3e6db849	0.2321483
184	0xbd7ca398	-0.061679453
185	0x3df4d895	0.11955372
186	0x3ebbeef0	0.36705732
187	0x3e4cf830	0.20016551
188	0xbe971525	-0.2950832
189	0xbe13c320	-0.14429903
190	0x3e61c019	0.22045936
191	0x3e8f90fc	0.28040302
192	0xbded0de5	-0.11574916
193	0x3d8d169b	0.06889077
194	0x3e945da1	0.28977683
195	0xbd972b49	-0.07381303
196	0xbdd61422	-0.10453059
197	0xbbb8de9e	-0.0056417724
198	0xbe2f8f6d	-0.17144556
199	0x3e7dee69	0.24797978
200	0xbe46e56f	-0.1942346
201	0xbd3aae25	-0.045576233
202	0xbe962af1	-0.29329637
203	0x3de271ea	0.11056884
204	0x3e034f42	0.12823203
205	0x3e82dec3	0.2556058
206	0x3e8c5177	0.27405903
207	0xbd5a04ab	-0.053227108
208	0xbdf675d5	-0.120341934
209	0xbe11c2a4	-0.14234406
210	0x3e668fc9	0.22515787
211	0x3e3e12b5	0.18561824
212	0x3eb38b61	0.35067275
213	0xbe0ab4f6	-0.13545594
214	0xbe493033	-0.19647293
215	0x3e72b5e6	0.23702201
216	0xbe3ef5de	-0.18648478
217	0xbec078c6	-0.37592143
218	0xbc08447c	-0.008317109
219	0x3db50acd	0.08839951
220	0xbd5b9827	-0.0536119
221	0xbdef355e	-0.11680101
222	0x3e97fc35	0.29684606
223	0x3eb0e0b7	0.34546444
224	0xbdf4b837	-0.11949199
225	0x3ea7ac42	0.3274861
226	0x3e40e699	0.18837966
227	0x3e5c4105	0.21509178
228	0xbe0fef24	-0.14056069
229	0xbd4d08e2	-0.0500573
230	0x3de3d35d	0.11124299
231	0x3e9bafd8	0.30407596
232	0xbea3e396	-0.32009572
233	0xbe9beba8	-0.3045323
234	0xbe7d267a	-0.24721709
235	0xbec4ed73	-0.3846241
236	0xbe6e5d6a	-0.23277822
237	0x3e83be13	0.25730953
238	0x3e8c4da3	0.27402982
239	0x3e37fe64	0.17968136
240	0xbe7c5747	-0.24642669
241	0xbe22ad30	-0.15886378
242	0x3e873386	0.26406497
243	0x3e8bd990	0.27314425
244	0xbe6f5131	-0.23370816
245	0xbe00308c	-0.12518519
246	0xbdfd0eae	-0.123563156
247	0xbe99cbf2	-0.3003841
248	0x3e96b939	0.2943819
249	0xbeaf04cf	-0.34183356
250	0x3e211504	0.15730673
251	0xbbcc9a70	-0.0062439963
252	0x3e4dde9d	0.20104451
253	0xbea03087	-0.31287023
254	0x3e8cdd6b	0.27512679
255	0xbe6e43cd	-0.23268051

fc2.bias f4 [10]
0	0x3edafd89	0.42771557
1	0x3e95b2c3	0.29237947
2	0xbe8be2a6	-0.27321357
3	0xbe3ff075	-0.18744071
4	0xbd30b48f	-0.043140944
5	0xbcedc963	-0.029026693
6	0xbea2731e	-0.31728452
7	0xbe33e21b	-0.17566721
8	0x3e732d0a	0.2374765
9	0xbe6bba7f	-0.23020361
